node {
  name: "Const"
  op: "Const"
  attr {
    key: "_output_shapes"
    value {
      list {
        shape {
        }
      }
    }
  }
  attr {
    key: "dtype"
    value {
      type: DT_FLOAT
    }
  }
  attr {
    key: "value"
    value {
      tensor {
        dtype: DT_FLOAT
        tensor_shape {
        }
        float_val: 9.999999974752427e-07
      }
    }
  }
}
node {
  name: "Const_1"
  op: "Const"
  attr {
    key: "_output_shapes"
    value {
      list {
        shape {
        }
      }
    }
  }
  attr {
    key: "dtype"
    value {
      type: DT_FLOAT
    }
  }
  attr {
    key: "value"
    value {
      tensor {
        dtype: DT_FLOAT
        tensor_shape {
        }
        float_val: 3.1415927410125732
      }
    }
  }
}
node {
  name: "InputSpectralFrame/input_producer/Const"
  op: "Const"
  attr {
    key: "_output_shapes"
    value {
      list {
        shape {
          dim {
            size: 1458
          }
        }
      }
    }
  }
  attr {
    key: "dtype"
    value {
      type: DT_STRING
    }
  }
  attr {
    key: "value"
    value {
      tensor {
        dtype: DT_STRING
        tensor_shape {
          dim {
            size: 1458
          }
        }
        string_val: "./dataset/vcc2016/bin/Training Set/TM1/100117.bin"
        string_val: "./dataset/vcc2016/bin/Training Set/TM1/100144.bin"
        string_val: "./dataset/vcc2016/bin/Training Set/TM1/100146.bin"
        string_val: "./dataset/vcc2016/bin/Training Set/TM1/100145.bin"
        string_val: "./dataset/vcc2016/bin/Training Set/TM1/100064.bin"
        string_val: "./dataset/vcc2016/bin/Training Set/TM1/100065.bin"
        string_val: "./dataset/vcc2016/bin/Training Set/TM1/100003.bin"
        string_val: "./dataset/vcc2016/bin/Training Set/TM1/100074.bin"
        string_val: "./dataset/vcc2016/bin/Training Set/TM1/100126.bin"
        string_val: "./dataset/vcc2016/bin/Training Set/TM1/100022.bin"
        string_val: "./dataset/vcc2016/bin/Training Set/TM1/100150.bin"
        string_val: "./dataset/vcc2016/bin/Training Set/TM1/100112.bin"
        string_val: "./dataset/vcc2016/bin/Training Set/TM1/100127.bin"
        string_val: "./dataset/vcc2016/bin/Training Set/TM1/100034.bin"
        string_val: "./dataset/vcc2016/bin/Training Set/TM1/100090.bin"
        string_val: "./dataset/vcc2016/bin/Training Set/TM1/100118.bin"
        string_val: "./dataset/vcc2016/bin/Training Set/TM1/100100.bin"
        string_val: "./dataset/vcc2016/bin/Training Set/TM1/100158.bin"
        string_val: "./dataset/vcc2016/bin/Training Set/TM1/100156.bin"
        string_val: "./dataset/vcc2016/bin/Training Set/TM1/100120.bin"
        string_val: "./dataset/vcc2016/bin/Training Set/TM1/100048.bin"
        string_val: "./dataset/vcc2016/bin/Training Set/TM1/100083.bin"
        string_val: "./dataset/vcc2016/bin/Training Set/TM1/100005.bin"
        string_val: "./dataset/vcc2016/bin/Training Set/TM1/100132.bin"
        string_val: "./dataset/vcc2016/bin/Training Set/TM1/100016.bin"
        string_val: "./dataset/vcc2016/bin/Training Set/TM1/100094.bin"
        string_val: "./dataset/vcc2016/bin/Training Set/TM1/100030.bin"
        string_val: "./dataset/vcc2016/bin/Training Set/TM1/100104.bin"
        string_val: "./dataset/vcc2016/bin/Training Set/TM1/100052.bin"
        string_val: "./dataset/vcc2016/bin/Training Set/TM1/100021.bin"
        string_val: "./dataset/vcc2016/bin/Training Set/TM1/100149.bin"
        string_val: "./dataset/vcc2016/bin/Training Set/TM1/100143.bin"
        string_val: "./dataset/vcc2016/bin/Training Set/TM1/100006.bin"
        string_val: "./dataset/vcc2016/bin/Training Set/TM1/100076.bin"
        string_val: "./dataset/vcc2016/bin/Training Set/TM1/100084.bin"
        string_val: "./dataset/vcc2016/bin/Training Set/TM1/100123.bin"
        string_val: "./dataset/vcc2016/bin/Training Set/TM1/100014.bin"
        string_val: "./dataset/vcc2016/bin/Training Set/TM1/100071.bin"
        string_val: "./dataset/vcc2016/bin/Training Set/TM1/100061.bin"
        string_val: "./dataset/vcc2016/bin/Training Set/TM1/100075.bin"
        string_val: "./dataset/vcc2016/bin/Training Set/TM1/100038.bin"
        string_val: "./dataset/vcc2016/bin/Training Set/TM1/100073.bin"
        string_val: "./dataset/vcc2016/bin/Training Set/TM1/100154.bin"
        string_val: "./dataset/vcc2016/bin/Training Set/TM1/100007.bin"
        string_val: "./dataset/vcc2016/bin/Training Set/TM1/100135.bin"
        string_val: "./dataset/vcc2016/bin/Training Set/TM1/100082.bin"
        string_val: "./dataset/vcc2016/bin/Training Set/TM1/100085.bin"
        string_val: "./dataset/vcc2016/bin/Training Set/TM1/100092.bin"
        string_val: "./dataset/vcc2016/bin/Training Set/TM1/100017.bin"
        string_val: "./dataset/vcc2016/bin/Training Set/TM1/100106.bin"
        string_val: "./dataset/vcc2016/bin/Training Set/TM1/100037.bin"
        string_val: "./dataset/vcc2016/bin/Training Set/TM1/100049.bin"
        string_val: "./dataset/vcc2016/bin/Training Set/TM1/100012.bin"
        string_val: "./dataset/vcc2016/bin/Training Set/TM1/100039.bin"
        string_val: "./dataset/vcc2016/bin/Training Set/TM1/100032.bin"
        string_val: "./dataset/vcc2016/bin/Training Set/TM1/100047.bin"
        string_val: "./dataset/vcc2016/bin/Training Set/TM1/100088.bin"
        string_val: "./dataset/vcc2016/bin/Training Set/TM1/100091.bin"
        string_val: "./dataset/vcc2016/bin/Training Set/TM1/100098.bin"
        string_val: "./dataset/vcc2016/bin/Training Set/TM1/100138.bin"
        string_val: "./dataset/vcc2016/bin/Training Set/TM1/100036.bin"
        string_val: "./dataset/vcc2016/bin/Training Set/TM1/100045.bin"
        string_val: "./dataset/vcc2016/bin/Training Set/TM1/100130.bin"
        string_val: "./dataset/vcc2016/bin/Training Set/TM1/100110.bin"
        string_val: "./dataset/vcc2016/bin/Training Set/TM1/100055.bin"
        string_val: "./dataset/vcc2016/bin/Training Set/TM1/100131.bin"
        string_val: "./dataset/vcc2016/bin/Training Set/TM1/100051.bin"
        string_val: "./dataset/vcc2016/bin/Training Set/TM1/100077.bin"
        string_val: "./dataset/vcc2016/bin/Training Set/TM1/100079.bin"
        string_val: "./dataset/vcc2016/bin/Training Set/TM1/100066.bin"
        string_val: "./dataset/vcc2016/bin/Training Set/TM1/100111.bin"
        string_val: "./dataset/vcc2016/bin/Training Set/TM1/100060.bin"
        string_val: "./dataset/vcc2016/bin/Training Set/TM1/100134.bin"
        string_val: "./dataset/vcc2016/bin/Training Set/TM1/100041.bin"
        string_val: "./dataset/vcc2016/bin/Training Set/TM1/100103.bin"
        string_val: "./dataset/vcc2016/bin/Training Set/TM1/100161.bin"
        string_val: "./dataset/vcc2016/bin/Training Set/TM1/100020.bin"
        string_val: "./dataset/vcc2016/bin/Training Set/TM1/100058.bin"
        string_val: "./dataset/vcc2016/bin/Training Set/TM1/100095.bin"
        string_val: "./dataset/vcc2016/bin/Training Set/TM1/100013.bin"
        string_val: "./dataset/vcc2016/bin/Training Set/TM1/100142.bin"
        string_val: "./dataset/vcc2016/bin/Training Set/TM1/100136.bin"
        string_val: "./dataset/vcc2016/bin/Training Set/TM1/100108.bin"
        string_val: "./dataset/vcc2016/bin/Training Set/TM1/100124.bin"
        string_val: "./dataset/vcc2016/bin/Training Set/TM1/100078.bin"
        string_val: "./dataset/vcc2016/bin/Training Set/TM1/100024.bin"
        string_val: "./dataset/vcc2016/bin/Training Set/TM1/100105.bin"
        string_val: "./dataset/vcc2016/bin/Training Set/TM1/100027.bin"
        string_val: "./dataset/vcc2016/bin/Training Set/TM1/100081.bin"
        string_val: "./dataset/vcc2016/bin/Training Set/TM1/100099.bin"
        string_val: "./dataset/vcc2016/bin/Training Set/TM1/100139.bin"
        string_val: "./dataset/vcc2016/bin/Training Set/TM1/100068.bin"
        string_val: "./dataset/vcc2016/bin/Training Set/TM1/100026.bin"
        string_val: "./dataset/vcc2016/bin/Training Set/TM1/100044.bin"
        string_val: "./dataset/vcc2016/bin/Training Set/TM1/100063.bin"
        string_val: "./dataset/vcc2016/bin/Training Set/TM1/100128.bin"
        string_val: "./dataset/vcc2016/bin/Training Set/TM1/100023.bin"
        string_val: "./dataset/vcc2016/bin/Training Set/TM1/100069.bin"
        string_val: "./dataset/vcc2016/bin/Training Set/TM1/100102.bin"
        string_val: "./dataset/vcc2016/bin/Training Set/TM1/100153.bin"
        string_val: "./dataset/vcc2016/bin/Training Set/TM1/100056.bin"
        string_val: "./dataset/vcc2016/bin/Training Set/TM1/100043.bin"
        string_val: "./dataset/vcc2016/bin/Training Set/TM1/100148.bin"
        string_val: "./dataset/vcc2016/bin/Training Set/TM1/100089.bin"
        string_val: "./dataset/vcc2016/bin/Training Set/TM1/100018.bin"
        string_val: "./dataset/vcc2016/bin/Training Set/TM1/100019.bin"
        string_val: "./dataset/vcc2016/bin/Training Set/TM1/100062.bin"
        string_val: "./dataset/vcc2016/bin/Training Set/TM1/100046.bin"
        string_val: "./dataset/vcc2016/bin/Training Set/TM1/100070.bin"
        string_val: "./dataset/vcc2016/bin/Training Set/TM1/100059.bin"
        string_val: "./dataset/vcc2016/bin/Training Set/TM1/100129.bin"
        string_val: "./dataset/vcc2016/bin/Training Set/TM1/100155.bin"
        string_val: "./dataset/vcc2016/bin/Training Set/TM1/100008.bin"
        string_val: "./dataset/vcc2016/bin/Training Set/TM1/100157.bin"
        string_val: "./dataset/vcc2016/bin/Training Set/TM1/100159.bin"
        string_val: "./dataset/vcc2016/bin/Training Set/TM1/100054.bin"
        string_val: "./dataset/vcc2016/bin/Training Set/TM1/100001.bin"
        string_val: "./dataset/vcc2016/bin/Training Set/TM1/100133.bin"
        string_val: "./dataset/vcc2016/bin/Training Set/TM1/100115.bin"
        string_val: "./dataset/vcc2016/bin/Training Set/TM1/100029.bin"
        string_val: "./dataset/vcc2016/bin/Training Set/TM1/100010.bin"
        string_val: "./dataset/vcc2016/bin/Training Set/TM1/100057.bin"
        string_val: "./dataset/vcc2016/bin/Training Set/TM1/100004.bin"
        string_val: "./dataset/vcc2016/bin/Training Set/TM1/100160.bin"
        string_val: "./dataset/vcc2016/bin/Training Set/TM1/100009.bin"
        string_val: "./dataset/vcc2016/bin/Training Set/TM1/100015.bin"
        string_val: "./dataset/vcc2016/bin/Training Set/TM1/100097.bin"
        string_val: "./dataset/vcc2016/bin/Training Set/TM1/100141.bin"
        string_val: "./dataset/vcc2016/bin/Training Set/TM1/100109.bin"
        string_val: "./dataset/vcc2016/bin/Training Set/TM1/100028.bin"
        string_val: "./dataset/vcc2016/bin/Training Set/TM1/100002.bin"
        string_val: "./dataset/vcc2016/bin/Training Set/TM1/100125.bin"
        string_val: "./dataset/vcc2016/bin/Training Set/TM1/100087.bin"
        string_val: "./dataset/vcc2016/bin/Training Set/TM1/100033.bin"
        string_val: "./dataset/vcc2016/bin/Training Set/TM1/100042.bin"
        string_val: "./dataset/vcc2016/bin/Training Set/TM1/100035.bin"
        string_val: "./dataset/vcc2016/bin/Training Set/TM1/100147.bin"
        string_val: "./dataset/vcc2016/bin/Training Set/TM1/100151.bin"
        string_val: "./dataset/vcc2016/bin/Training Set/TM1/100114.bin"
        string_val: "./dataset/vcc2016/bin/Training Set/TM1/100096.bin"
        string_val: "./dataset/vcc2016/bin/Training Set/TM1/100140.bin"
        string_val: "./dataset/vcc2016/bin/Training Set/TM1/100031.bin"
        string_val: "./dataset/vcc2016/bin/Training Set/TM1/100053.bin"
        string_val: "./dataset/vcc2016/bin/Training Set/TM1/100101.bin"
        string_val: "./dataset/vcc2016/bin/Training Set/TM1/100086.bin"
        string_val: "./dataset/vcc2016/bin/Training Set/TM1/100080.bin"
        string_val: "./dataset/vcc2016/bin/Training Set/TM1/100137.bin"
        string_val: "./dataset/vcc2016/bin/Training Set/TM1/100025.bin"
        string_val: "./dataset/vcc2016/bin/Training Set/TM1/100011.bin"
        string_val: "./dataset/vcc2016/bin/Training Set/TM1/100119.bin"
        string_val: "./dataset/vcc2016/bin/Training Set/TM1/100067.bin"
        string_val: "./dataset/vcc2016/bin/Training Set/TM1/100107.bin"
        string_val: "./dataset/vcc2016/bin/Training Set/TM1/100050.bin"
        string_val: "./dataset/vcc2016/bin/Training Set/TM1/100113.bin"
        string_val: "./dataset/vcc2016/bin/Training Set/TM1/100162.bin"
        string_val: "./dataset/vcc2016/bin/Training Set/TM1/100093.bin"
        string_val: "./dataset/vcc2016/bin/Training Set/TM1/100122.bin"
        string_val: "./dataset/vcc2016/bin/Training Set/TM1/100040.bin"
        string_val: "./dataset/vcc2016/bin/Training Set/TM1/100116.bin"
        string_val: "./dataset/vcc2016/bin/Training Set/TM1/100072.bin"
        string_val: "./dataset/vcc2016/bin/Training Set/TM1/100152.bin"
        string_val: "./dataset/vcc2016/bin/Training Set/TM1/100121.bin"
        string_val: "./dataset/vcc2016/bin/Training Set/SM1/100117.bin"
        string_val: "./dataset/vcc2016/bin/Training Set/SM1/100144.bin"
        string_val: "./dataset/vcc2016/bin/Training Set/SM1/100146.bin"
        string_val: "./dataset/vcc2016/bin/Training Set/SM1/100145.bin"
        string_val: "./dataset/vcc2016/bin/Training Set/SM1/100064.bin"
        string_val: "./dataset/vcc2016/bin/Training Set/SM1/100065.bin"
        string_val: "./dataset/vcc2016/bin/Training Set/SM1/100003.bin"
        string_val: "./dataset/vcc2016/bin/Training Set/SM1/100074.bin"
        string_val: "./dataset/vcc2016/bin/Training Set/SM1/100126.bin"
        string_val: "./dataset/vcc2016/bin/Training Set/SM1/100022.bin"
        string_val: "./dataset/vcc2016/bin/Training Set/SM1/100150.bin"
        string_val: "./dataset/vcc2016/bin/Training Set/SM1/100112.bin"
        string_val: "./dataset/vcc2016/bin/Training Set/SM1/100127.bin"
        string_val: "./dataset/vcc2016/bin/Training Set/SM1/100034.bin"
        string_val: "./dataset/vcc2016/bin/Training Set/SM1/100090.bin"
        string_val: "./dataset/vcc2016/bin/Training Set/SM1/100118.bin"
        string_val: "./dataset/vcc2016/bin/Training Set/SM1/100100.bin"
        string_val: "./dataset/vcc2016/bin/Training Set/SM1/100158.bin"
        string_val: "./dataset/vcc2016/bin/Training Set/SM1/100156.bin"
        string_val: "./dataset/vcc2016/bin/Training Set/SM1/100120.bin"
        string_val: "./dataset/vcc2016/bin/Training Set/SM1/100048.bin"
        string_val: "./dataset/vcc2016/bin/Training Set/SM1/100083.bin"
        string_val: "./dataset/vcc2016/bin/Training Set/SM1/100005.bin"
        string_val: "./dataset/vcc2016/bin/Training Set/SM1/100132.bin"
        string_val: "./dataset/vcc2016/bin/Training Set/SM1/100016.bin"
        string_val: "./dataset/vcc2016/bin/Training Set/SM1/100094.bin"
        string_val: "./dataset/vcc2016/bin/Training Set/SM1/100030.bin"
        string_val: "./dataset/vcc2016/bin/Training Set/SM1/100104.bin"
        string_val: "./dataset/vcc2016/bin/Training Set/SM1/100052.bin"
        string_val: "./dataset/vcc2016/bin/Training Set/SM1/100021.bin"
        string_val: "./dataset/vcc2016/bin/Training Set/SM1/100149.bin"
        string_val: "./dataset/vcc2016/bin/Training Set/SM1/100143.bin"
        string_val: "./dataset/vcc2016/bin/Training Set/SM1/100006.bin"
        string_val: "./dataset/vcc2016/bin/Training Set/SM1/100076.bin"
        string_val: "./dataset/vcc2016/bin/Training Set/SM1/100084.bin"
        string_val: "./dataset/vcc2016/bin/Training Set/SM1/100123.bin"
        string_val: "./dataset/vcc2016/bin/Training Set/SM1/100014.bin"
        string_val: "./dataset/vcc2016/bin/Training Set/SM1/100071.bin"
        string_val: "./dataset/vcc2016/bin/Training Set/SM1/100061.bin"
        string_val: "./dataset/vcc2016/bin/Training Set/SM1/100075.bin"
        string_val: "./dataset/vcc2016/bin/Training Set/SM1/100038.bin"
        string_val: "./dataset/vcc2016/bin/Training Set/SM1/100073.bin"
        string_val: "./dataset/vcc2016/bin/Training Set/SM1/100154.bin"
        string_val: "./dataset/vcc2016/bin/Training Set/SM1/100007.bin"
        string_val: "./dataset/vcc2016/bin/Training Set/SM1/100135.bin"
        string_val: "./dataset/vcc2016/bin/Training Set/SM1/100082.bin"
        string_val: "./dataset/vcc2016/bin/Training Set/SM1/100085.bin"
        string_val: "./dataset/vcc2016/bin/Training Set/SM1/100092.bin"
        string_val: "./dataset/vcc2016/bin/Training Set/SM1/100017.bin"
        string_val: "./dataset/vcc2016/bin/Training Set/SM1/100106.bin"
        string_val: "./dataset/vcc2016/bin/Training Set/SM1/100037.bin"
        string_val: "./dataset/vcc2016/bin/Training Set/SM1/100049.bin"
        string_val: "./dataset/vcc2016/bin/Training Set/SM1/100012.bin"
        string_val: "./dataset/vcc2016/bin/Training Set/SM1/100039.bin"
        string_val: "./dataset/vcc2016/bin/Training Set/SM1/100032.bin"
        string_val: "./dataset/vcc2016/bin/Training Set/SM1/100047.bin"
        string_val: "./dataset/vcc2016/bin/Training Set/SM1/100088.bin"
        string_val: "./dataset/vcc2016/bin/Training Set/SM1/100091.bin"
        string_val: "./dataset/vcc2016/bin/Training Set/SM1/100098.bin"
        string_val: "./dataset/vcc2016/bin/Training Set/SM1/100138.bin"
        string_val: "./dataset/vcc2016/bin/Training Set/SM1/100036.bin"
        string_val: "./dataset/vcc2016/bin/Training Set/SM1/100045.bin"
        string_val: "./dataset/vcc2016/bin/Training Set/SM1/100130.bin"
        string_val: "./dataset/vcc2016/bin/Training Set/SM1/100110.bin"
        string_val: "./dataset/vcc2016/bin/Training Set/SM1/100055.bin"
        string_val: "./dataset/vcc2016/bin/Training Set/SM1/100131.bin"
        string_val: "./dataset/vcc2016/bin/Training Set/SM1/100051.bin"
        string_val: "./dataset/vcc2016/bin/Training Set/SM1/100077.bin"
        string_val: "./dataset/vcc2016/bin/Training Set/SM1/100079.bin"
        string_val: "./dataset/vcc2016/bin/Training Set/SM1/100066.bin"
        string_val: "./dataset/vcc2016/bin/Training Set/SM1/100111.bin"
        string_val: "./dataset/vcc2016/bin/Training Set/SM1/100060.bin"
        string_val: "./dataset/vcc2016/bin/Training Set/SM1/100134.bin"
        string_val: "./dataset/vcc2016/bin/Training Set/SM1/100041.bin"
        string_val: "./dataset/vcc2016/bin/Training Set/SM1/100103.bin"
        string_val: "./dataset/vcc2016/bin/Training Set/SM1/100161.bin"
        string_val: "./dataset/vcc2016/bin/Training Set/SM1/100020.bin"
        string_val: "./dataset/vcc2016/bin/Training Set/SM1/100058.bin"
        string_val: "./dataset/vcc2016/bin/Training Set/SM1/100095.bin"
        string_val: "./dataset/vcc2016/bin/Training Set/SM1/100013.bin"
        string_val: "./dataset/vcc2016/bin/Training Set/SM1/100142.bin"
        string_val: "./dataset/vcc2016/bin/Training Set/SM1/100136.bin"
        string_val: "./dataset/vcc2016/bin/Training Set/SM1/100108.bin"
        string_val: "./dataset/vcc2016/bin/Training Set/SM1/100124.bin"
        string_val: "./dataset/vcc2016/bin/Training Set/SM1/100078.bin"
        string_val: "./dataset/vcc2016/bin/Training Set/SM1/100024.bin"
        string_val: "./dataset/vcc2016/bin/Training Set/SM1/100105.bin"
        string_val: "./dataset/vcc2016/bin/Training Set/SM1/100027.bin"
        string_val: "./dataset/vcc2016/bin/Training Set/SM1/100081.bin"
        string_val: "./dataset/vcc2016/bin/Training Set/SM1/100099.bin"
        string_val: "./dataset/vcc2016/bin/Training Set/SM1/100139.bin"
        string_val: "./dataset/vcc2016/bin/Training Set/SM1/100068.bin"
        string_val: "./dataset/vcc2016/bin/Training Set/SM1/100026.bin"
        string_val: "./dataset/vcc2016/bin/Training Set/SM1/100044.bin"
        string_val: "./dataset/vcc2016/bin/Training Set/SM1/100063.bin"
        string_val: "./dataset/vcc2016/bin/Training Set/SM1/100128.bin"
        string_val: "./dataset/vcc2016/bin/Training Set/SM1/100023.bin"
        string_val: "./dataset/vcc2016/bin/Training Set/SM1/100069.bin"
        string_val: "./dataset/vcc2016/bin/Training Set/SM1/100102.bin"
        string_val: "./dataset/vcc2016/bin/Training Set/SM1/100153.bin"
        string_val: "./dataset/vcc2016/bin/Training Set/SM1/100056.bin"
        string_val: "./dataset/vcc2016/bin/Training Set/SM1/100043.bin"
        string_val: "./dataset/vcc2016/bin/Training Set/SM1/100148.bin"
        string_val: "./dataset/vcc2016/bin/Training Set/SM1/100089.bin"
        string_val: "./dataset/vcc2016/bin/Training Set/SM1/100018.bin"
        string_val: "./dataset/vcc2016/bin/Training Set/SM1/100019.bin"
        string_val: "./dataset/vcc2016/bin/Training Set/SM1/100062.bin"
        string_val: "./dataset/vcc2016/bin/Training Set/SM1/100046.bin"
        string_val: "./dataset/vcc2016/bin/Training Set/SM1/100070.bin"
        string_val: "./dataset/vcc2016/bin/Training Set/SM1/100059.bin"
        string_val: "./dataset/vcc2016/bin/Training Set/SM1/100129.bin"
        string_val: "./dataset/vcc2016/bin/Training Set/SM1/100155.bin"
        string_val: "./dataset/vcc2016/bin/Training Set/SM1/100008.bin"
        string_val: "./dataset/vcc2016/bin/Training Set/SM1/100157.bin"
        string_val: "./dataset/vcc2016/bin/Training Set/SM1/100159.bin"
        string_val: "./dataset/vcc2016/bin/Training Set/SM1/100054.bin"
        string_val: "./dataset/vcc2016/bin/Training Set/SM1/100001.bin"
        string_val: "./dataset/vcc2016/bin/Training Set/SM1/100133.bin"
        string_val: "./dataset/vcc2016/bin/Training Set/SM1/100115.bin"
        string_val: "./dataset/vcc2016/bin/Training Set/SM1/100029.bin"
        string_val: "./dataset/vcc2016/bin/Training Set/SM1/100010.bin"
        string_val: "./dataset/vcc2016/bin/Training Set/SM1/100057.bin"
        string_val: "./dataset/vcc2016/bin/Training Set/SM1/100004.bin"
        string_val: "./dataset/vcc2016/bin/Training Set/SM1/100160.bin"
        string_val: "./dataset/vcc2016/bin/Training Set/SM1/100009.bin"
        string_val: "./dataset/vcc2016/bin/Training Set/SM1/100015.bin"
        string_val: "./dataset/vcc2016/bin/Training Set/SM1/100097.bin"
        string_val: "./dataset/vcc2016/bin/Training Set/SM1/100141.bin"
        string_val: "./dataset/vcc2016/bin/Training Set/SM1/100109.bin"
        string_val: "./dataset/vcc2016/bin/Training Set/SM1/100028.bin"
        string_val: "./dataset/vcc2016/bin/Training Set/SM1/100002.bin"
        string_val: "./dataset/vcc2016/bin/Training Set/SM1/100125.bin"
        string_val: "./dataset/vcc2016/bin/Training Set/SM1/100087.bin"
        string_val: "./dataset/vcc2016/bin/Training Set/SM1/100033.bin"
        string_val: "./dataset/vcc2016/bin/Training Set/SM1/100042.bin"
        string_val: "./dataset/vcc2016/bin/Training Set/SM1/100035.bin"
        string_val: "./dataset/vcc2016/bin/Training Set/SM1/100147.bin"
        string_val: "./dataset/vcc2016/bin/Training Set/SM1/100151.bin"
        string_val: "./dataset/vcc2016/bin/Training Set/SM1/100114.bin"
        string_val: "./dataset/vcc2016/bin/Training Set/SM1/100096.bin"
        string_val: "./dataset/vcc2016/bin/Training Set/SM1/100140.bin"
        string_val: "./dataset/vcc2016/bin/Training Set/SM1/100031.bin"
        string_val: "./dataset/vcc2016/bin/Training Set/SM1/100053.bin"
        string_val: "./dataset/vcc2016/bin/Training Set/SM1/100101.bin"
        string_val: "./dataset/vcc2016/bin/Training Set/SM1/100086.bin"
        string_val: "./dataset/vcc2016/bin/Training Set/SM1/100080.bin"
        string_val: "./dataset/vcc2016/bin/Training Set/SM1/100137.bin"
        string_val: "./dataset/vcc2016/bin/Training Set/SM1/100025.bin"
        string_val: "./dataset/vcc2016/bin/Training Set/SM1/100011.bin"
        string_val: "./dataset/vcc2016/bin/Training Set/SM1/100119.bin"
        string_val: "./dataset/vcc2016/bin/Training Set/SM1/100067.bin"
        string_val: "./dataset/vcc2016/bin/Training Set/SM1/100107.bin"
        string_val: "./dataset/vcc2016/bin/Training Set/SM1/100050.bin"
        string_val: "./dataset/vcc2016/bin/Training Set/SM1/100113.bin"
        string_val: "./dataset/vcc2016/bin/Training Set/SM1/100162.bin"
        string_val: "./dataset/vcc2016/bin/Training Set/SM1/100093.bin"
        string_val: "./dataset/vcc2016/bin/Training Set/SM1/100122.bin"
        string_val: "./dataset/vcc2016/bin/Training Set/SM1/100040.bin"
        string_val: "./dataset/vcc2016/bin/Training Set/SM1/100116.bin"
        string_val: "./dataset/vcc2016/bin/Training Set/SM1/100072.bin"
        string_val: "./dataset/vcc2016/bin/Training Set/SM1/100152.bin"
        string_val: "./dataset/vcc2016/bin/Training Set/SM1/100121.bin"
        string_val: "./dataset/vcc2016/bin/Training Set/SF3/100117.bin"
        string_val: "./dataset/vcc2016/bin/Training Set/SF3/100144.bin"
        string_val: "./dataset/vcc2016/bin/Training Set/SF3/100146.bin"
        string_val: "./dataset/vcc2016/bin/Training Set/SF3/100145.bin"
        string_val: "./dataset/vcc2016/bin/Training Set/SF3/100064.bin"
        string_val: "./dataset/vcc2016/bin/Training Set/SF3/100065.bin"
        string_val: "./dataset/vcc2016/bin/Training Set/SF3/100003.bin"
        string_val: "./dataset/vcc2016/bin/Training Set/SF3/100074.bin"
        string_val: "./dataset/vcc2016/bin/Training Set/SF3/100126.bin"
        string_val: "./dataset/vcc2016/bin/Training Set/SF3/100022.bin"
        string_val: "./dataset/vcc2016/bin/Training Set/SF3/100150.bin"
        string_val: "./dataset/vcc2016/bin/Training Set/SF3/100112.bin"
        string_val: "./dataset/vcc2016/bin/Training Set/SF3/100127.bin"
        string_val: "./dataset/vcc2016/bin/Training Set/SF3/100034.bin"
        string_val: "./dataset/vcc2016/bin/Training Set/SF3/100090.bin"
        string_val: "./dataset/vcc2016/bin/Training Set/SF3/100118.bin"
        string_val: "./dataset/vcc2016/bin/Training Set/SF3/100100.bin"
        string_val: "./dataset/vcc2016/bin/Training Set/SF3/100158.bin"
        string_val: "./dataset/vcc2016/bin/Training Set/SF3/100156.bin"
        string_val: "./dataset/vcc2016/bin/Training Set/SF3/100120.bin"
        string_val: "./dataset/vcc2016/bin/Training Set/SF3/100048.bin"
        string_val: "./dataset/vcc2016/bin/Training Set/SF3/100083.bin"
        string_val: "./dataset/vcc2016/bin/Training Set/SF3/100005.bin"
        string_val: "./dataset/vcc2016/bin/Training Set/SF3/100132.bin"
        string_val: "./dataset/vcc2016/bin/Training Set/SF3/100016.bin"
        string_val: "./dataset/vcc2016/bin/Training Set/SF3/100094.bin"
        string_val: "./dataset/vcc2016/bin/Training Set/SF3/100030.bin"
        string_val: "./dataset/vcc2016/bin/Training Set/SF3/100104.bin"
        string_val: "./dataset/vcc2016/bin/Training Set/SF3/100052.bin"
        string_val: "./dataset/vcc2016/bin/Training Set/SF3/100021.bin"
        string_val: "./dataset/vcc2016/bin/Training Set/SF3/100149.bin"
        string_val: "./dataset/vcc2016/bin/Training Set/SF3/100143.bin"
        string_val: "./dataset/vcc2016/bin/Training Set/SF3/100006.bin"
        string_val: "./dataset/vcc2016/bin/Training Set/SF3/100076.bin"
        string_val: "./dataset/vcc2016/bin/Training Set/SF3/100084.bin"
        string_val: "./dataset/vcc2016/bin/Training Set/SF3/100123.bin"
        string_val: "./dataset/vcc2016/bin/Training Set/SF3/100014.bin"
        string_val: "./dataset/vcc2016/bin/Training Set/SF3/100071.bin"
        string_val: "./dataset/vcc2016/bin/Training Set/SF3/100061.bin"
        string_val: "./dataset/vcc2016/bin/Training Set/SF3/100075.bin"
        string_val: "./dataset/vcc2016/bin/Training Set/SF3/100038.bin"
        string_val: "./dataset/vcc2016/bin/Training Set/SF3/100073.bin"
        string_val: "./dataset/vcc2016/bin/Training Set/SF3/100154.bin"
        string_val: "./dataset/vcc2016/bin/Training Set/SF3/100007.bin"
        string_val: "./dataset/vcc2016/bin/Training Set/SF3/100135.bin"
        string_val: "./dataset/vcc2016/bin/Training Set/SF3/100082.bin"
        string_val: "./dataset/vcc2016/bin/Training Set/SF3/100085.bin"
        string_val: "./dataset/vcc2016/bin/Training Set/SF3/100092.bin"
        string_val: "./dataset/vcc2016/bin/Training Set/SF3/100017.bin"
        string_val: "./dataset/vcc2016/bin/Training Set/SF3/100106.bin"
        string_val: "./dataset/vcc2016/bin/Training Set/SF3/100037.bin"
        string_val: "./dataset/vcc2016/bin/Training Set/SF3/100049.bin"
        string_val: "./dataset/vcc2016/bin/Training Set/SF3/100012.bin"
        string_val: "./dataset/vcc2016/bin/Training Set/SF3/100039.bin"
        string_val: "./dataset/vcc2016/bin/Training Set/SF3/100032.bin"
        string_val: "./dataset/vcc2016/bin/Training Set/SF3/100047.bin"
        string_val: "./dataset/vcc2016/bin/Training Set/SF3/100088.bin"
        string_val: "./dataset/vcc2016/bin/Training Set/SF3/100091.bin"
        string_val: "./dataset/vcc2016/bin/Training Set/SF3/100098.bin"
        string_val: "./dataset/vcc2016/bin/Training Set/SF3/100138.bin"
        string_val: "./dataset/vcc2016/bin/Training Set/SF3/100036.bin"
        string_val: "./dataset/vcc2016/bin/Training Set/SF3/100045.bin"
        string_val: "./dataset/vcc2016/bin/Training Set/SF3/100130.bin"
        string_val: "./dataset/vcc2016/bin/Training Set/SF3/100110.bin"
        string_val: "./dataset/vcc2016/bin/Training Set/SF3/100055.bin"
        string_val: "./dataset/vcc2016/bin/Training Set/SF3/100131.bin"
        string_val: "./dataset/vcc2016/bin/Training Set/SF3/100051.bin"
        string_val: "./dataset/vcc2016/bin/Training Set/SF3/100077.bin"
        string_val: "./dataset/vcc2016/bin/Training Set/SF3/100079.bin"
        string_val: "./dataset/vcc2016/bin/Training Set/SF3/100066.bin"
        string_val: "./dataset/vcc2016/bin/Training Set/SF3/100111.bin"
        string_val: "./dataset/vcc2016/bin/Training Set/SF3/100060.bin"
        string_val: "./dataset/vcc2016/bin/Training Set/SF3/100134.bin"
        string_val: "./dataset/vcc2016/bin/Training Set/SF3/100041.bin"
        string_val: "./dataset/vcc2016/bin/Training Set/SF3/100103.bin"
        string_val: "./dataset/vcc2016/bin/Training Set/SF3/100161.bin"
        string_val: "./dataset/vcc2016/bin/Training Set/SF3/100020.bin"
        string_val: "./dataset/vcc2016/bin/Training Set/SF3/100058.bin"
        string_val: "./dataset/vcc2016/bin/Training Set/SF3/100095.bin"
        string_val: "./dataset/vcc2016/bin/Training Set/SF3/100013.bin"
        string_val: "./dataset/vcc2016/bin/Training Set/SF3/100142.bin"
        string_val: "./dataset/vcc2016/bin/Training Set/SF3/100136.bin"
        string_val: "./dataset/vcc2016/bin/Training Set/SF3/100108.bin"
        string_val: "./dataset/vcc2016/bin/Training Set/SF3/100124.bin"
        string_val: "./dataset/vcc2016/bin/Training Set/SF3/100078.bin"
        string_val: "./dataset/vcc2016/bin/Training Set/SF3/100024.bin"
        string_val: "./dataset/vcc2016/bin/Training Set/SF3/100105.bin"
        string_val: "./dataset/vcc2016/bin/Training Set/SF3/100027.bin"
        string_val: "./dataset/vcc2016/bin/Training Set/SF3/100081.bin"
        string_val: "./dataset/vcc2016/bin/Training Set/SF3/100099.bin"
        string_val: "./dataset/vcc2016/bin/Training Set/SF3/100139.bin"
        string_val: "./dataset/vcc2016/bin/Training Set/SF3/100068.bin"
        string_val: "./dataset/vcc2016/bin/Training Set/SF3/100026.bin"
        string_val: "./dataset/vcc2016/bin/Training Set/SF3/100044.bin"
        string_val: "./dataset/vcc2016/bin/Training Set/SF3/100063.bin"
        string_val: "./dataset/vcc2016/bin/Training Set/SF3/100128.bin"
        string_val: "./dataset/vcc2016/bin/Training Set/SF3/100023.bin"
        string_val: "./dataset/vcc2016/bin/Training Set/SF3/100069.bin"
        string_val: "./dataset/vcc2016/bin/Training Set/SF3/100102.bin"
        string_val: "./dataset/vcc2016/bin/Training Set/SF3/100153.bin"
        string_val: "./dataset/vcc2016/bin/Training Set/SF3/100056.bin"
        string_val: "./dataset/vcc2016/bin/Training Set/SF3/100043.bin"
        string_val: "./dataset/vcc2016/bin/Training Set/SF3/100148.bin"
        string_val: "./dataset/vcc2016/bin/Training Set/SF3/100089.bin"
        string_val: "./dataset/vcc2016/bin/Training Set/SF3/100018.bin"
        string_val: "./dataset/vcc2016/bin/Training Set/SF3/100019.bin"
        string_val: "./dataset/vcc2016/bin/Training Set/SF3/100062.bin"
        string_val: "./dataset/vcc2016/bin/Training Set/SF3/100046.bin"
        string_val: "./dataset/vcc2016/bin/Training Set/SF3/100070.bin"
        string_val: "./dataset/vcc2016/bin/Training Set/SF3/100059.bin"
        string_val: "./dataset/vcc2016/bin/Training Set/SF3/100129.bin"
        string_val: "./dataset/vcc2016/bin/Training Set/SF3/100155.bin"
        string_val: "./dataset/vcc2016/bin/Training Set/SF3/100008.bin"
        string_val: "./dataset/vcc2016/bin/Training Set/SF3/100157.bin"
        string_val: "./dataset/vcc2016/bin/Training Set/SF3/100159.bin"
        string_val: "./dataset/vcc2016/bin/Training Set/SF3/100054.bin"
        string_val: "./dataset/vcc2016/bin/Training Set/SF3/100001.bin"
        string_val: "./dataset/vcc2016/bin/Training Set/SF3/100133.bin"
        string_val: "./dataset/vcc2016/bin/Training Set/SF3/100115.bin"
        string_val: "./dataset/vcc2016/bin/Training Set/SF3/100029.bin"
        string_val: "./dataset/vcc2016/bin/Training Set/SF3/100010.bin"
        string_val: "./dataset/vcc2016/bin/Training Set/SF3/100057.bin"
        string_val: "./dataset/vcc2016/bin/Training Set/SF3/100004.bin"
        string_val: "./dataset/vcc2016/bin/Training Set/SF3/100160.bin"
        string_val: "./dataset/vcc2016/bin/Training Set/SF3/100009.bin"
        string_val: "./dataset/vcc2016/bin/Training Set/SF3/100015.bin"
        string_val: "./dataset/vcc2016/bin/Training Set/SF3/100097.bin"
        string_val: "./dataset/vcc2016/bin/Training Set/SF3/100141.bin"
        string_val: "./dataset/vcc2016/bin/Training Set/SF3/100109.bin"
        string_val: "./dataset/vcc2016/bin/Training Set/SF3/100028.bin"
        string_val: "./dataset/vcc2016/bin/Training Set/SF3/100002.bin"
        string_val: "./dataset/vcc2016/bin/Training Set/SF3/100125.bin"
        string_val: "./dataset/vcc2016/bin/Training Set/SF3/100087.bin"
        string_val: "./dataset/vcc2016/bin/Training Set/SF3/100033.bin"
        string_val: "./dataset/vcc2016/bin/Training Set/SF3/100042.bin"
        string_val: "./dataset/vcc2016/bin/Training Set/SF3/100035.bin"
        string_val: "./dataset/vcc2016/bin/Training Set/SF3/100147.bin"
        string_val: "./dataset/vcc2016/bin/Training Set/SF3/100151.bin"
        string_val: "./dataset/vcc2016/bin/Training Set/SF3/100114.bin"
        string_val: "./dataset/vcc2016/bin/Training Set/SF3/100096.bin"
        string_val: "./dataset/vcc2016/bin/Training Set/SF3/100140.bin"
        string_val: "./dataset/vcc2016/bin/Training Set/SF3/100031.bin"
        string_val: "./dataset/vcc2016/bin/Training Set/SF3/100053.bin"
        string_val: "./dataset/vcc2016/bin/Training Set/SF3/100101.bin"
        string_val: "./dataset/vcc2016/bin/Training Set/SF3/100086.bin"
        string_val: "./dataset/vcc2016/bin/Training Set/SF3/100080.bin"
        string_val: "./dataset/vcc2016/bin/Training Set/SF3/100137.bin"
        string_val: "./dataset/vcc2016/bin/Training Set/SF3/100025.bin"
        string_val: "./dataset/vcc2016/bin/Training Set/SF3/100011.bin"
        string_val: "./dataset/vcc2016/bin/Training Set/SF3/100119.bin"
        string_val: "./dataset/vcc2016/bin/Training Set/SF3/100067.bin"
        string_val: "./dataset/vcc2016/bin/Training Set/SF3/100107.bin"
        string_val: "./dataset/vcc2016/bin/Training Set/SF3/100050.bin"
        string_val: "./dataset/vcc2016/bin/Training Set/SF3/100113.bin"
        string_val: "./dataset/vcc2016/bin/Training Set/SF3/100162.bin"
        string_val: "./dataset/vcc2016/bin/Training Set/SF3/100093.bin"
        string_val: "./dataset/vcc2016/bin/Training Set/SF3/100122.bin"
        string_val: "./dataset/vcc2016/bin/Training Set/SF3/100040.bin"
        string_val: "./dataset/vcc2016/bin/Training Set/SF3/100116.bin"
        string_val: "./dataset/vcc2016/bin/Training Set/SF3/100072.bin"
        string_val: "./dataset/vcc2016/bin/Training Set/SF3/100152.bin"
        string_val: "./dataset/vcc2016/bin/Training Set/SF3/100121.bin"
        string_val: "./dataset/vcc2016/bin/Training Set/TM3/100117.bin"
        string_val: "./dataset/vcc2016/bin/Training Set/TM3/100144.bin"
        string_val: "./dataset/vcc2016/bin/Training Set/TM3/100146.bin"
        string_val: "./dataset/vcc2016/bin/Training Set/TM3/100145.bin"
        string_val: "./dataset/vcc2016/bin/Training Set/TM3/100064.bin"
        string_val: "./dataset/vcc2016/bin/Training Set/TM3/100065.bin"
        string_val: "./dataset/vcc2016/bin/Training Set/TM3/100003.bin"
        string_val: "./dataset/vcc2016/bin/Training Set/TM3/100074.bin"
        string_val: "./dataset/vcc2016/bin/Training Set/TM3/100126.bin"
        string_val: "./dataset/vcc2016/bin/Training Set/TM3/100022.bin"
        string_val: "./dataset/vcc2016/bin/Training Set/TM3/100150.bin"
        string_val: "./dataset/vcc2016/bin/Training Set/TM3/100112.bin"
        string_val: "./dataset/vcc2016/bin/Training Set/TM3/100127.bin"
        string_val: "./dataset/vcc2016/bin/Training Set/TM3/100034.bin"
        string_val: "./dataset/vcc2016/bin/Training Set/TM3/100090.bin"
        string_val: "./dataset/vcc2016/bin/Training Set/TM3/100118.bin"
        string_val: "./dataset/vcc2016/bin/Training Set/TM3/100100.bin"
        string_val: "./dataset/vcc2016/bin/Training Set/TM3/100158.bin"
        string_val: "./dataset/vcc2016/bin/Training Set/TM3/100156.bin"
        string_val: "./dataset/vcc2016/bin/Training Set/TM3/100120.bin"
        string_val: "./dataset/vcc2016/bin/Training Set/TM3/100048.bin"
        string_val: "./dataset/vcc2016/bin/Training Set/TM3/100083.bin"
        string_val: "./dataset/vcc2016/bin/Training Set/TM3/100005.bin"
        string_val: "./dataset/vcc2016/bin/Training Set/TM3/100132.bin"
        string_val: "./dataset/vcc2016/bin/Training Set/TM3/100016.bin"
        string_val: "./dataset/vcc2016/bin/Training Set/TM3/100094.bin"
        string_val: "./dataset/vcc2016/bin/Training Set/TM3/100030.bin"
        string_val: "./dataset/vcc2016/bin/Training Set/TM3/100104.bin"
        string_val: "./dataset/vcc2016/bin/Training Set/TM3/100052.bin"
        string_val: "./dataset/vcc2016/bin/Training Set/TM3/100021.bin"
        string_val: "./dataset/vcc2016/bin/Training Set/TM3/100149.bin"
        string_val: "./dataset/vcc2016/bin/Training Set/TM3/100143.bin"
        string_val: "./dataset/vcc2016/bin/Training Set/TM3/100006.bin"
        string_val: "./dataset/vcc2016/bin/Training Set/TM3/100076.bin"
        string_val: "./dataset/vcc2016/bin/Training Set/TM3/100084.bin"
        string_val: "./dataset/vcc2016/bin/Training Set/TM3/100123.bin"
        string_val: "./dataset/vcc2016/bin/Training Set/TM3/100014.bin"
        string_val: "./dataset/vcc2016/bin/Training Set/TM3/100071.bin"
        string_val: "./dataset/vcc2016/bin/Training Set/TM3/100061.bin"
        string_val: "./dataset/vcc2016/bin/Training Set/TM3/100075.bin"
        string_val: "./dataset/vcc2016/bin/Training Set/TM3/100038.bin"
        string_val: "./dataset/vcc2016/bin/Training Set/TM3/100073.bin"
        string_val: "./dataset/vcc2016/bin/Training Set/TM3/100154.bin"
        string_val: "./dataset/vcc2016/bin/Training Set/TM3/100007.bin"
        string_val: "./dataset/vcc2016/bin/Training Set/TM3/100135.bin"
        string_val: "./dataset/vcc2016/bin/Training Set/TM3/100082.bin"
        string_val: "./dataset/vcc2016/bin/Training Set/TM3/100085.bin"
        string_val: "./dataset/vcc2016/bin/Training Set/TM3/100092.bin"
        string_val: "./dataset/vcc2016/bin/Training Set/TM3/100017.bin"
        string_val: "./dataset/vcc2016/bin/Training Set/TM3/100106.bin"
        string_val: "./dataset/vcc2016/bin/Training Set/TM3/100037.bin"
        string_val: "./dataset/vcc2016/bin/Training Set/TM3/100049.bin"
        string_val: "./dataset/vcc2016/bin/Training Set/TM3/100012.bin"
        string_val: "./dataset/vcc2016/bin/Training Set/TM3/100039.bin"
        string_val: "./dataset/vcc2016/bin/Training Set/TM3/100032.bin"
        string_val: "./dataset/vcc2016/bin/Training Set/TM3/100047.bin"
        string_val: "./dataset/vcc2016/bin/Training Set/TM3/100088.bin"
        string_val: "./dataset/vcc2016/bin/Training Set/TM3/100091.bin"
        string_val: "./dataset/vcc2016/bin/Training Set/TM3/100098.bin"
        string_val: "./dataset/vcc2016/bin/Training Set/TM3/100138.bin"
        string_val: "./dataset/vcc2016/bin/Training Set/TM3/100036.bin"
        string_val: "./dataset/vcc2016/bin/Training Set/TM3/100045.bin"
        string_val: "./dataset/vcc2016/bin/Training Set/TM3/100130.bin"
        string_val: "./dataset/vcc2016/bin/Training Set/TM3/100110.bin"
        string_val: "./dataset/vcc2016/bin/Training Set/TM3/100055.bin"
        string_val: "./dataset/vcc2016/bin/Training Set/TM3/100131.bin"
        string_val: "./dataset/vcc2016/bin/Training Set/TM3/100051.bin"
        string_val: "./dataset/vcc2016/bin/Training Set/TM3/100077.bin"
        string_val: "./dataset/vcc2016/bin/Training Set/TM3/100079.bin"
        string_val: "./dataset/vcc2016/bin/Training Set/TM3/100066.bin"
        string_val: "./dataset/vcc2016/bin/Training Set/TM3/100111.bin"
        string_val: "./dataset/vcc2016/bin/Training Set/TM3/100060.bin"
        string_val: "./dataset/vcc2016/bin/Training Set/TM3/100134.bin"
        string_val: "./dataset/vcc2016/bin/Training Set/TM3/100041.bin"
        string_val: "./dataset/vcc2016/bin/Training Set/TM3/100103.bin"
        string_val: "./dataset/vcc2016/bin/Training Set/TM3/100161.bin"
        string_val: "./dataset/vcc2016/bin/Training Set/TM3/100020.bin"
        string_val: "./dataset/vcc2016/bin/Training Set/TM3/100058.bin"
        string_val: "./dataset/vcc2016/bin/Training Set/TM3/100095.bin"
        string_val: "./dataset/vcc2016/bin/Training Set/TM3/100013.bin"
        string_val: "./dataset/vcc2016/bin/Training Set/TM3/100142.bin"
        string_val: "./dataset/vcc2016/bin/Training Set/TM3/100136.bin"
        string_val: "./dataset/vcc2016/bin/Training Set/TM3/100108.bin"
        string_val: "./dataset/vcc2016/bin/Training Set/TM3/100124.bin"
        string_val: "./dataset/vcc2016/bin/Training Set/TM3/100078.bin"
        string_val: "./dataset/vcc2016/bin/Training Set/TM3/100024.bin"
        string_val: "./dataset/vcc2016/bin/Training Set/TM3/100105.bin"
        string_val: "./dataset/vcc2016/bin/Training Set/TM3/100027.bin"
        string_val: "./dataset/vcc2016/bin/Training Set/TM3/100081.bin"
        string_val: "./dataset/vcc2016/bin/Training Set/TM3/100099.bin"
        string_val: "./dataset/vcc2016/bin/Training Set/TM3/100139.bin"
        string_val: "./dataset/vcc2016/bin/Training Set/TM3/100068.bin"
        string_val: "./dataset/vcc2016/bin/Training Set/TM3/100026.bin"
        string_val: "./dataset/vcc2016/bin/Training Set/TM3/100044.bin"
        string_val: "./dataset/vcc2016/bin/Training Set/TM3/100063.bin"
        string_val: "./dataset/vcc2016/bin/Training Set/TM3/100128.bin"
        string_val: "./dataset/vcc2016/bin/Training Set/TM3/100023.bin"
        string_val: "./dataset/vcc2016/bin/Training Set/TM3/100069.bin"
        string_val: "./dataset/vcc2016/bin/Training Set/TM3/100102.bin"
        string_val: "./dataset/vcc2016/bin/Training Set/TM3/100153.bin"
        string_val: "./dataset/vcc2016/bin/Training Set/TM3/100056.bin"
        string_val: "./dataset/vcc2016/bin/Training Set/TM3/100043.bin"
        string_val: "./dataset/vcc2016/bin/Training Set/TM3/100148.bin"
        string_val: "./dataset/vcc2016/bin/Training Set/TM3/100089.bin"
        string_val: "./dataset/vcc2016/bin/Training Set/TM3/100018.bin"
        string_val: "./dataset/vcc2016/bin/Training Set/TM3/100019.bin"
        string_val: "./dataset/vcc2016/bin/Training Set/TM3/100062.bin"
        string_val: "./dataset/vcc2016/bin/Training Set/TM3/100046.bin"
        string_val: "./dataset/vcc2016/bin/Training Set/TM3/100070.bin"
        string_val: "./dataset/vcc2016/bin/Training Set/TM3/100059.bin"
        string_val: "./dataset/vcc2016/bin/Training Set/TM3/100129.bin"
        string_val: "./dataset/vcc2016/bin/Training Set/TM3/100155.bin"
        string_val: "./dataset/vcc2016/bin/Training Set/TM3/100008.bin"
        string_val: "./dataset/vcc2016/bin/Training Set/TM3/100157.bin"
        string_val: "./dataset/vcc2016/bin/Training Set/TM3/100159.bin"
        string_val: "./dataset/vcc2016/bin/Training Set/TM3/100054.bin"
        string_val: "./dataset/vcc2016/bin/Training Set/TM3/100001.bin"
        string_val: "./dataset/vcc2016/bin/Training Set/TM3/100133.bin"
        string_val: "./dataset/vcc2016/bin/Training Set/TM3/100115.bin"
        string_val: "./dataset/vcc2016/bin/Training Set/TM3/100029.bin"
        string_val: "./dataset/vcc2016/bin/Training Set/TM3/100010.bin"
        string_val: "./dataset/vcc2016/bin/Training Set/TM3/100057.bin"
        string_val: "./dataset/vcc2016/bin/Training Set/TM3/100004.bin"
        string_val: "./dataset/vcc2016/bin/Training Set/TM3/100160.bin"
        string_val: "./dataset/vcc2016/bin/Training Set/TM3/100009.bin"
        string_val: "./dataset/vcc2016/bin/Training Set/TM3/100015.bin"
        string_val: "./dataset/vcc2016/bin/Training Set/TM3/100097.bin"
        string_val: "./dataset/vcc2016/bin/Training Set/TM3/100141.bin"
        string_val: "./dataset/vcc2016/bin/Training Set/TM3/100109.bin"
        string_val: "./dataset/vcc2016/bin/Training Set/TM3/100028.bin"
        string_val: "./dataset/vcc2016/bin/Training Set/TM3/100002.bin"
        string_val: "./dataset/vcc2016/bin/Training Set/TM3/100125.bin"
        string_val: "./dataset/vcc2016/bin/Training Set/TM3/100087.bin"
        string_val: "./dataset/vcc2016/bin/Training Set/TM3/100033.bin"
        string_val: "./dataset/vcc2016/bin/Training Set/TM3/100042.bin"
        string_val: "./dataset/vcc2016/bin/Training Set/TM3/100035.bin"
        string_val: "./dataset/vcc2016/bin/Training Set/TM3/100147.bin"
        string_val: "./dataset/vcc2016/bin/Training Set/TM3/100151.bin"
        string_val: "./dataset/vcc2016/bin/Training Set/TM3/100114.bin"
        string_val: "./dataset/vcc2016/bin/Training Set/TM3/100096.bin"
        string_val: "./dataset/vcc2016/bin/Training Set/TM3/100140.bin"
        string_val: "./dataset/vcc2016/bin/Training Set/TM3/100031.bin"
        string_val: "./dataset/vcc2016/bin/Training Set/TM3/100053.bin"
        string_val: "./dataset/vcc2016/bin/Training Set/TM3/100101.bin"
        string_val: "./dataset/vcc2016/bin/Training Set/TM3/100086.bin"
        string_val: "./dataset/vcc2016/bin/Training Set/TM3/100080.bin"
        string_val: "./dataset/vcc2016/bin/Training Set/TM3/100137.bin"
        string_val: "./dataset/vcc2016/bin/Training Set/TM3/100025.bin"
        string_val: "./dataset/vcc2016/bin/Training Set/TM3/100011.bin"
        string_val: "./dataset/vcc2016/bin/Training Set/TM3/100119.bin"
        string_val: "./dataset/vcc2016/bin/Training Set/TM3/100067.bin"
        string_val: "./dataset/vcc2016/bin/Training Set/TM3/100107.bin"
        string_val: "./dataset/vcc2016/bin/Training Set/TM3/100050.bin"
        string_val: "./dataset/vcc2016/bin/Training Set/TM3/100113.bin"
        string_val: "./dataset/vcc2016/bin/Training Set/TM3/100162.bin"
        string_val: "./dataset/vcc2016/bin/Training Set/TM3/100093.bin"
        string_val: "./dataset/vcc2016/bin/Training Set/TM3/100122.bin"
        string_val: "./dataset/vcc2016/bin/Training Set/TM3/100040.bin"
        string_val: "./dataset/vcc2016/bin/Training Set/TM3/100116.bin"
        string_val: "./dataset/vcc2016/bin/Training Set/TM3/100072.bin"
        string_val: "./dataset/vcc2016/bin/Training Set/TM3/100152.bin"
        string_val: "./dataset/vcc2016/bin/Training Set/TM3/100121.bin"
        string_val: "./dataset/vcc2016/bin/Training Set/SF1/100117.bin"
        string_val: "./dataset/vcc2016/bin/Training Set/SF1/100144.bin"
        string_val: "./dataset/vcc2016/bin/Training Set/SF1/100146.bin"
        string_val: "./dataset/vcc2016/bin/Training Set/SF1/100145.bin"
        string_val: "./dataset/vcc2016/bin/Training Set/SF1/100064.bin"
        string_val: "./dataset/vcc2016/bin/Training Set/SF1/100065.bin"
        string_val: "./dataset/vcc2016/bin/Training Set/SF1/100003.bin"
        string_val: "./dataset/vcc2016/bin/Training Set/SF1/100074.bin"
        string_val: "./dataset/vcc2016/bin/Training Set/SF1/100126.bin"
        string_val: "./dataset/vcc2016/bin/Training Set/SF1/100022.bin"
        string_val: "./dataset/vcc2016/bin/Training Set/SF1/100150.bin"
        string_val: "./dataset/vcc2016/bin/Training Set/SF1/100112.bin"
        string_val: "./dataset/vcc2016/bin/Training Set/SF1/100127.bin"
        string_val: "./dataset/vcc2016/bin/Training Set/SF1/100034.bin"
        string_val: "./dataset/vcc2016/bin/Training Set/SF1/100090.bin"
        string_val: "./dataset/vcc2016/bin/Training Set/SF1/100118.bin"
        string_val: "./dataset/vcc2016/bin/Training Set/SF1/100100.bin"
        string_val: "./dataset/vcc2016/bin/Training Set/SF1/100158.bin"
        string_val: "./dataset/vcc2016/bin/Training Set/SF1/100156.bin"
        string_val: "./dataset/vcc2016/bin/Training Set/SF1/100120.bin"
        string_val: "./dataset/vcc2016/bin/Training Set/SF1/100048.bin"
        string_val: "./dataset/vcc2016/bin/Training Set/SF1/100083.bin"
        string_val: "./dataset/vcc2016/bin/Training Set/SF1/100005.bin"
        string_val: "./dataset/vcc2016/bin/Training Set/SF1/100132.bin"
        string_val: "./dataset/vcc2016/bin/Training Set/SF1/100016.bin"
        string_val: "./dataset/vcc2016/bin/Training Set/SF1/100094.bin"
        string_val: "./dataset/vcc2016/bin/Training Set/SF1/100030.bin"
        string_val: "./dataset/vcc2016/bin/Training Set/SF1/100104.bin"
        string_val: "./dataset/vcc2016/bin/Training Set/SF1/100052.bin"
        string_val: "./dataset/vcc2016/bin/Training Set/SF1/100021.bin"
        string_val: "./dataset/vcc2016/bin/Training Set/SF1/100149.bin"
        string_val: "./dataset/vcc2016/bin/Training Set/SF1/100143.bin"
        string_val: "./dataset/vcc2016/bin/Training Set/SF1/100006.bin"
        string_val: "./dataset/vcc2016/bin/Training Set/SF1/100076.bin"
        string_val: "./dataset/vcc2016/bin/Training Set/SF1/100084.bin"
        string_val: "./dataset/vcc2016/bin/Training Set/SF1/100123.bin"
        string_val: "./dataset/vcc2016/bin/Training Set/SF1/100014.bin"
        string_val: "./dataset/vcc2016/bin/Training Set/SF1/100071.bin"
        string_val: "./dataset/vcc2016/bin/Training Set/SF1/100061.bin"
        string_val: "./dataset/vcc2016/bin/Training Set/SF1/100075.bin"
        string_val: "./dataset/vcc2016/bin/Training Set/SF1/100038.bin"
        string_val: "./dataset/vcc2016/bin/Training Set/SF1/100073.bin"
        string_val: "./dataset/vcc2016/bin/Training Set/SF1/100154.bin"
        string_val: "./dataset/vcc2016/bin/Training Set/SF1/100007.bin"
        string_val: "./dataset/vcc2016/bin/Training Set/SF1/100135.bin"
        string_val: "./dataset/vcc2016/bin/Training Set/SF1/100082.bin"
        string_val: "./dataset/vcc2016/bin/Training Set/SF1/100085.bin"
        string_val: "./dataset/vcc2016/bin/Training Set/SF1/100092.bin"
        string_val: "./dataset/vcc2016/bin/Training Set/SF1/100017.bin"
        string_val: "./dataset/vcc2016/bin/Training Set/SF1/100106.bin"
        string_val: "./dataset/vcc2016/bin/Training Set/SF1/100037.bin"
        string_val: "./dataset/vcc2016/bin/Training Set/SF1/100049.bin"
        string_val: "./dataset/vcc2016/bin/Training Set/SF2/100117.bin"
        string_val: "./dataset/vcc2016/bin/Training Set/SF2/100144.bin"
        string_val: "./dataset/vcc2016/bin/Training Set/SF2/100146.bin"
        string_val: "./dataset/vcc2016/bin/Training Set/SF1/100012.bin"
        string_val: "./dataset/vcc2016/bin/Training Set/SF1/100039.bin"
        string_val: "./dataset/vcc2016/bin/Training Set/SF1/100032.bin"
        string_val: "./dataset/vcc2016/bin/Training Set/SF1/100047.bin"
        string_val: "./dataset/vcc2016/bin/Training Set/SF1/100088.bin"
        string_val: "./dataset/vcc2016/bin/Training Set/SF1/100091.bin"
        string_val: "./dataset/vcc2016/bin/Training Set/SF1/100098.bin"
        string_val: "./dataset/vcc2016/bin/Training Set/SF1/100138.bin"
        string_val: "./dataset/vcc2016/bin/Training Set/SF1/100036.bin"
        string_val: "./dataset/vcc2016/bin/Training Set/SF1/100045.bin"
        string_val: "./dataset/vcc2016/bin/Training Set/SF1/100130.bin"
        string_val: "./dataset/vcc2016/bin/Training Set/SF1/100110.bin"
        string_val: "./dataset/vcc2016/bin/Training Set/SF1/100055.bin"
        string_val: "./dataset/vcc2016/bin/Training Set/SF1/100131.bin"
        string_val: "./dataset/vcc2016/bin/Training Set/SF1/100051.bin"
        string_val: "./dataset/vcc2016/bin/Training Set/SF1/100077.bin"
        string_val: "./dataset/vcc2016/bin/Training Set/SF1/100079.bin"
        string_val: "./dataset/vcc2016/bin/Training Set/SF1/100066.bin"
        string_val: "./dataset/vcc2016/bin/Training Set/SF2/100145.bin"
        string_val: "./dataset/vcc2016/bin/Training Set/SF2/100064.bin"
        string_val: "./dataset/vcc2016/bin/Training Set/SF2/100065.bin"
        string_val: "./dataset/vcc2016/bin/Training Set/SF2/100003.bin"
        string_val: "./dataset/vcc2016/bin/Training Set/SF2/100074.bin"
        string_val: "./dataset/vcc2016/bin/Training Set/SF2/100126.bin"
        string_val: "./dataset/vcc2016/bin/Training Set/SF1/100111.bin"
        string_val: "./dataset/vcc2016/bin/Training Set/SF2/100022.bin"
        string_val: "./dataset/vcc2016/bin/Training Set/SF1/100060.bin"
        string_val: "./dataset/vcc2016/bin/Training Set/SF2/100150.bin"
        string_val: "./dataset/vcc2016/bin/Training Set/SF2/100112.bin"
        string_val: "./dataset/vcc2016/bin/Training Set/SF1/100134.bin"
        string_val: "./dataset/vcc2016/bin/Training Set/SF2/100127.bin"
        string_val: "./dataset/vcc2016/bin/Training Set/SF1/100041.bin"
        string_val: "./dataset/vcc2016/bin/Training Set/SF1/100103.bin"
        string_val: "./dataset/vcc2016/bin/Training Set/SF1/100161.bin"
        string_val: "./dataset/vcc2016/bin/Training Set/SF1/100020.bin"
        string_val: "./dataset/vcc2016/bin/Training Set/SF1/100058.bin"
        string_val: "./dataset/vcc2016/bin/Training Set/SF1/100095.bin"
        string_val: "./dataset/vcc2016/bin/Training Set/SF1/100013.bin"
        string_val: "./dataset/vcc2016/bin/Training Set/SF2/100034.bin"
        string_val: "./dataset/vcc2016/bin/Training Set/SF1/100142.bin"
        string_val: "./dataset/vcc2016/bin/Training Set/SF1/100136.bin"
        string_val: "./dataset/vcc2016/bin/Training Set/SF1/100108.bin"
        string_val: "./dataset/vcc2016/bin/Training Set/SF1/100124.bin"
        string_val: "./dataset/vcc2016/bin/Training Set/SF1/100078.bin"
        string_val: "./dataset/vcc2016/bin/Training Set/SF1/100024.bin"
        string_val: "./dataset/vcc2016/bin/Training Set/SF2/100090.bin"
        string_val: "./dataset/vcc2016/bin/Training Set/SF1/100105.bin"
        string_val: "./dataset/vcc2016/bin/Training Set/SF2/100118.bin"
        string_val: "./dataset/vcc2016/bin/Training Set/SF1/100027.bin"
        string_val: "./dataset/vcc2016/bin/Training Set/SF2/100100.bin"
        string_val: "./dataset/vcc2016/bin/Training Set/SF1/100081.bin"
        string_val: "./dataset/vcc2016/bin/Training Set/SF2/100158.bin"
        string_val: "./dataset/vcc2016/bin/Training Set/SF1/100099.bin"
        string_val: "./dataset/vcc2016/bin/Training Set/SF1/100139.bin"
        string_val: "./dataset/vcc2016/bin/Training Set/SF1/100068.bin"
        string_val: "./dataset/vcc2016/bin/Training Set/SF1/100026.bin"
        string_val: "./dataset/vcc2016/bin/Training Set/SF1/100044.bin"
        string_val: "./dataset/vcc2016/bin/Training Set/SF2/100156.bin"
        string_val: "./dataset/vcc2016/bin/Training Set/SF1/100063.bin"
        string_val: "./dataset/vcc2016/bin/Training Set/SF2/100120.bin"
        string_val: "./dataset/vcc2016/bin/Training Set/SF2/100048.bin"
        string_val: "./dataset/vcc2016/bin/Training Set/SF1/100128.bin"
        string_val: "./dataset/vcc2016/bin/Training Set/SF2/100083.bin"
        string_val: "./dataset/vcc2016/bin/Training Set/SF1/100023.bin"
        string_val: "./dataset/vcc2016/bin/Training Set/SF1/100069.bin"
        string_val: "./dataset/vcc2016/bin/Training Set/SF1/100102.bin"
        string_val: "./dataset/vcc2016/bin/Training Set/SF1/100153.bin"
        string_val: "./dataset/vcc2016/bin/Training Set/SF1/100056.bin"
        string_val: "./dataset/vcc2016/bin/Training Set/SF1/100043.bin"
        string_val: "./dataset/vcc2016/bin/Training Set/SF1/100148.bin"
        string_val: "./dataset/vcc2016/bin/Training Set/SF1/100089.bin"
        string_val: "./dataset/vcc2016/bin/Training Set/SF1/100018.bin"
        string_val: "./dataset/vcc2016/bin/Training Set/SF1/100019.bin"
        string_val: "./dataset/vcc2016/bin/Training Set/SF1/100062.bin"
        string_val: "./dataset/vcc2016/bin/Training Set/SF2/100005.bin"
        string_val: "./dataset/vcc2016/bin/Training Set/SF1/100046.bin"
        string_val: "./dataset/vcc2016/bin/Training Set/SF2/100132.bin"
        string_val: "./dataset/vcc2016/bin/Training Set/SF1/100070.bin"
        string_val: "./dataset/vcc2016/bin/Training Set/SF2/100016.bin"
        string_val: "./dataset/vcc2016/bin/Training Set/SF1/100059.bin"
        string_val: "./dataset/vcc2016/bin/Training Set/SF2/100094.bin"
        string_val: "./dataset/vcc2016/bin/Training Set/SF2/100030.bin"
        string_val: "./dataset/vcc2016/bin/Training Set/SF2/100104.bin"
        string_val: "./dataset/vcc2016/bin/Training Set/SF2/100052.bin"
        string_val: "./dataset/vcc2016/bin/Training Set/SF2/100021.bin"
        string_val: "./dataset/vcc2016/bin/Training Set/SF2/100149.bin"
        string_val: "./dataset/vcc2016/bin/Training Set/SF1/100129.bin"
        string_val: "./dataset/vcc2016/bin/Training Set/SF2/100143.bin"
        string_val: "./dataset/vcc2016/bin/Training Set/SF2/100006.bin"
        string_val: "./dataset/vcc2016/bin/Training Set/SF2/100076.bin"
        string_val: "./dataset/vcc2016/bin/Training Set/SF2/100084.bin"
        string_val: "./dataset/vcc2016/bin/Training Set/SF1/100155.bin"
        string_val: "./dataset/vcc2016/bin/Training Set/SF2/100123.bin"
        string_val: "./dataset/vcc2016/bin/Training Set/SF1/100008.bin"
        string_val: "./dataset/vcc2016/bin/Training Set/SF2/100014.bin"
        string_val: "./dataset/vcc2016/bin/Training Set/SF1/100157.bin"
        string_val: "./dataset/vcc2016/bin/Training Set/SF2/100071.bin"
        string_val: "./dataset/vcc2016/bin/Training Set/SF2/100061.bin"
        string_val: "./dataset/vcc2016/bin/Training Set/SF1/100159.bin"
        string_val: "./dataset/vcc2016/bin/Training Set/SF2/100075.bin"
        string_val: "./dataset/vcc2016/bin/Training Set/SF1/100054.bin"
        string_val: "./dataset/vcc2016/bin/Training Set/SF2/100038.bin"
        string_val: "./dataset/vcc2016/bin/Training Set/SF2/100073.bin"
        string_val: "./dataset/vcc2016/bin/Training Set/SF2/100154.bin"
        string_val: "./dataset/vcc2016/bin/Training Set/SF2/100007.bin"
        string_val: "./dataset/vcc2016/bin/Training Set/SF2/100135.bin"
        string_val: "./dataset/vcc2016/bin/Training Set/SF2/100082.bin"
        string_val: "./dataset/vcc2016/bin/Training Set/SF2/100085.bin"
        string_val: "./dataset/vcc2016/bin/Training Set/SF2/100092.bin"
        string_val: "./dataset/vcc2016/bin/Training Set/SF2/100017.bin"
        string_val: "./dataset/vcc2016/bin/Training Set/SF2/100106.bin"
        string_val: "./dataset/vcc2016/bin/Training Set/SF2/100037.bin"
        string_val: "./dataset/vcc2016/bin/Training Set/SF1/100001.bin"
        string_val: "./dataset/vcc2016/bin/Training Set/SF2/100049.bin"
        string_val: "./dataset/vcc2016/bin/Training Set/SF2/100012.bin"
        string_val: "./dataset/vcc2016/bin/Training Set/SF1/100133.bin"
        string_val: "./dataset/vcc2016/bin/Training Set/SF2/100039.bin"
        string_val: "./dataset/vcc2016/bin/Training Set/SF1/100115.bin"
        string_val: "./dataset/vcc2016/bin/Training Set/SF2/100032.bin"
        string_val: "./dataset/vcc2016/bin/Training Set/SF1/100029.bin"
        string_val: "./dataset/vcc2016/bin/Training Set/SF1/100010.bin"
        string_val: "./dataset/vcc2016/bin/Training Set/SF2/100047.bin"
        string_val: "./dataset/vcc2016/bin/Training Set/SF1/100057.bin"
        string_val: "./dataset/vcc2016/bin/Training Set/SF2/100088.bin"
        string_val: "./dataset/vcc2016/bin/Training Set/SF2/100091.bin"
        string_val: "./dataset/vcc2016/bin/Training Set/SF2/100098.bin"
        string_val: "./dataset/vcc2016/bin/Training Set/SF2/100138.bin"
        string_val: "./dataset/vcc2016/bin/Training Set/SF2/100036.bin"
        string_val: "./dataset/vcc2016/bin/Training Set/SF2/100045.bin"
        string_val: "./dataset/vcc2016/bin/Training Set/SF2/100130.bin"
        string_val: "./dataset/vcc2016/bin/Training Set/SF2/100110.bin"
        string_val: "./dataset/vcc2016/bin/Training Set/SF2/100055.bin"
        string_val: "./dataset/vcc2016/bin/Training Set/SF2/100131.bin"
        string_val: "./dataset/vcc2016/bin/Training Set/SF2/100051.bin"
        string_val: "./dataset/vcc2016/bin/Training Set/SF2/100077.bin"
        string_val: "./dataset/vcc2016/bin/Training Set/SF2/100079.bin"
        string_val: "./dataset/vcc2016/bin/Training Set/SF2/100066.bin"
        string_val: "./dataset/vcc2016/bin/Training Set/SF2/100111.bin"
        string_val: "./dataset/vcc2016/bin/Training Set/SF2/100060.bin"
        string_val: "./dataset/vcc2016/bin/Training Set/SF2/100134.bin"
        string_val: "./dataset/vcc2016/bin/Training Set/SF2/100041.bin"
        string_val: "./dataset/vcc2016/bin/Training Set/SF2/100103.bin"
        string_val: "./dataset/vcc2016/bin/Training Set/SF2/100161.bin"
        string_val: "./dataset/vcc2016/bin/Training Set/SF2/100020.bin"
        string_val: "./dataset/vcc2016/bin/Training Set/SF2/100058.bin"
        string_val: "./dataset/vcc2016/bin/Training Set/SF2/100095.bin"
        string_val: "./dataset/vcc2016/bin/Training Set/SF2/100013.bin"
        string_val: "./dataset/vcc2016/bin/Training Set/SF1/100004.bin"
        string_val: "./dataset/vcc2016/bin/Training Set/SF2/100142.bin"
        string_val: "./dataset/vcc2016/bin/Training Set/SF1/100160.bin"
        string_val: "./dataset/vcc2016/bin/Training Set/SF2/100136.bin"
        string_val: "./dataset/vcc2016/bin/Training Set/SF2/100108.bin"
        string_val: "./dataset/vcc2016/bin/Training Set/SF2/100124.bin"
        string_val: "./dataset/vcc2016/bin/Training Set/SF2/100078.bin"
        string_val: "./dataset/vcc2016/bin/Training Set/SF2/100024.bin"
        string_val: "./dataset/vcc2016/bin/Training Set/SF2/100105.bin"
        string_val: "./dataset/vcc2016/bin/Training Set/SF2/100027.bin"
        string_val: "./dataset/vcc2016/bin/Training Set/SF2/100081.bin"
        string_val: "./dataset/vcc2016/bin/Training Set/SF2/100099.bin"
        string_val: "./dataset/vcc2016/bin/Training Set/SF2/100139.bin"
        string_val: "./dataset/vcc2016/bin/Training Set/SF1/100009.bin"
        string_val: "./dataset/vcc2016/bin/Training Set/SF2/100068.bin"
        string_val: "./dataset/vcc2016/bin/Training Set/SF2/100026.bin"
        string_val: "./dataset/vcc2016/bin/Training Set/SF1/100015.bin"
        string_val: "./dataset/vcc2016/bin/Training Set/SF1/100097.bin"
        string_val: "./dataset/vcc2016/bin/Training Set/SF2/100044.bin"
        string_val: "./dataset/vcc2016/bin/Training Set/SF1/100141.bin"
        string_val: "./dataset/vcc2016/bin/Training Set/SF2/100063.bin"
        string_val: "./dataset/vcc2016/bin/Training Set/SF1/100109.bin"
        string_val: "./dataset/vcc2016/bin/Training Set/SF2/100128.bin"
        string_val: "./dataset/vcc2016/bin/Training Set/SF1/100028.bin"
        string_val: "./dataset/vcc2016/bin/Training Set/SF1/100002.bin"
        string_val: "./dataset/vcc2016/bin/Training Set/SF1/100125.bin"
        string_val: "./dataset/vcc2016/bin/Training Set/SF1/100087.bin"
        string_val: "./dataset/vcc2016/bin/Training Set/SF2/100023.bin"
        string_val: "./dataset/vcc2016/bin/Training Set/SF1/100033.bin"
        string_val: "./dataset/vcc2016/bin/Training Set/SF2/100069.bin"
        string_val: "./dataset/vcc2016/bin/Training Set/SF2/100102.bin"
        string_val: "./dataset/vcc2016/bin/Training Set/SF2/100153.bin"
        string_val: "./dataset/vcc2016/bin/Training Set/SF1/100042.bin"
        string_val: "./dataset/vcc2016/bin/Training Set/SF2/100056.bin"
        string_val: "./dataset/vcc2016/bin/Training Set/SF1/100035.bin"
        string_val: "./dataset/vcc2016/bin/Training Set/SF2/100043.bin"
        string_val: "./dataset/vcc2016/bin/Training Set/SF1/100147.bin"
        string_val: "./dataset/vcc2016/bin/Training Set/SF1/100151.bin"
        string_val: "./dataset/vcc2016/bin/Training Set/SF1/100114.bin"
        string_val: "./dataset/vcc2016/bin/Training Set/SF1/100096.bin"
        string_val: "./dataset/vcc2016/bin/Training Set/SF2/100148.bin"
        string_val: "./dataset/vcc2016/bin/Training Set/SF1/100140.bin"
        string_val: "./dataset/vcc2016/bin/Training Set/SF2/100089.bin"
        string_val: "./dataset/vcc2016/bin/Training Set/SF1/100031.bin"
        string_val: "./dataset/vcc2016/bin/Training Set/SF2/100018.bin"
        string_val: "./dataset/vcc2016/bin/Training Set/SF1/100053.bin"
        string_val: "./dataset/vcc2016/bin/Training Set/SF2/100019.bin"
        string_val: "./dataset/vcc2016/bin/Training Set/SF2/100062.bin"
        string_val: "./dataset/vcc2016/bin/Training Set/SF2/100046.bin"
        string_val: "./dataset/vcc2016/bin/Training Set/SF1/100101.bin"
        string_val: "./dataset/vcc2016/bin/Training Set/SF2/100070.bin"
        string_val: "./dataset/vcc2016/bin/Training Set/SF1/100086.bin"
        string_val: "./dataset/vcc2016/bin/Training Set/SF1/100080.bin"
        string_val: "./dataset/vcc2016/bin/Training Set/SF2/100059.bin"
        string_val: "./dataset/vcc2016/bin/Training Set/SF2/100129.bin"
        string_val: "./dataset/vcc2016/bin/Training Set/SF2/100155.bin"
        string_val: "./dataset/vcc2016/bin/Training Set/SF2/100008.bin"
        string_val: "./dataset/vcc2016/bin/Training Set/SF2/100157.bin"
        string_val: "./dataset/vcc2016/bin/Training Set/SF2/100159.bin"
        string_val: "./dataset/vcc2016/bin/Training Set/SF2/100054.bin"
        string_val: "./dataset/vcc2016/bin/Training Set/SF2/100001.bin"
        string_val: "./dataset/vcc2016/bin/Training Set/SF2/100133.bin"
        string_val: "./dataset/vcc2016/bin/Training Set/SF2/100115.bin"
        string_val: "./dataset/vcc2016/bin/Training Set/SF2/100029.bin"
        string_val: "./dataset/vcc2016/bin/Training Set/SF2/100010.bin"
        string_val: "./dataset/vcc2016/bin/Training Set/SF2/100057.bin"
        string_val: "./dataset/vcc2016/bin/Training Set/SF2/100004.bin"
        string_val: "./dataset/vcc2016/bin/Training Set/SF1/100137.bin"
        string_val: "./dataset/vcc2016/bin/Training Set/SF1/100025.bin"
        string_val: "./dataset/vcc2016/bin/Training Set/SF2/100160.bin"
        string_val: "./dataset/vcc2016/bin/Training Set/SF1/100011.bin"
        string_val: "./dataset/vcc2016/bin/Training Set/SF2/100009.bin"
        string_val: "./dataset/vcc2016/bin/Training Set/SF1/100119.bin"
        string_val: "./dataset/vcc2016/bin/Training Set/SF2/100015.bin"
        string_val: "./dataset/vcc2016/bin/Training Set/SF1/100067.bin"
        string_val: "./dataset/vcc2016/bin/Training Set/SF2/100097.bin"
        string_val: "./dataset/vcc2016/bin/Training Set/SF1/100107.bin"
        string_val: "./dataset/vcc2016/bin/Training Set/SF2/100141.bin"
        string_val: "./dataset/vcc2016/bin/Training Set/SF1/100050.bin"
        string_val: "./dataset/vcc2016/bin/Training Set/SF2/100109.bin"
        string_val: "./dataset/vcc2016/bin/Training Set/SF1/100113.bin"
        string_val: "./dataset/vcc2016/bin/Training Set/SF1/100162.bin"
        string_val: "./dataset/vcc2016/bin/Training Set/SF1/100093.bin"
        string_val: "./dataset/vcc2016/bin/Training Set/SF1/100122.bin"
        string_val: "./dataset/vcc2016/bin/Training Set/SF1/100040.bin"
        string_val: "./dataset/vcc2016/bin/Training Set/SF1/100116.bin"
        string_val: "./dataset/vcc2016/bin/Training Set/SF1/100072.bin"
        string_val: "./dataset/vcc2016/bin/Training Set/SF1/100152.bin"
        string_val: "./dataset/vcc2016/bin/Training Set/SF1/100121.bin"
        string_val: "./dataset/vcc2016/bin/Training Set/SF2/100028.bin"
        string_val: "./dataset/vcc2016/bin/Training Set/SF2/100002.bin"
        string_val: "./dataset/vcc2016/bin/Training Set/SF2/100125.bin"
        string_val: "./dataset/vcc2016/bin/Training Set/SF2/100087.bin"
        string_val: "./dataset/vcc2016/bin/Training Set/SF2/100033.bin"
        string_val: "./dataset/vcc2016/bin/Training Set/SF2/100042.bin"
        string_val: "./dataset/vcc2016/bin/Training Set/SF2/100035.bin"
        string_val: "./dataset/vcc2016/bin/Training Set/SF2/100147.bin"
        string_val: "./dataset/vcc2016/bin/Training Set/SF2/100151.bin"
        string_val: "./dataset/vcc2016/bin/Training Set/SF2/100114.bin"
        string_val: "./dataset/vcc2016/bin/Training Set/SF2/100096.bin"
        string_val: "./dataset/vcc2016/bin/Training Set/SF2/100140.bin"
        string_val: "./dataset/vcc2016/bin/Training Set/SF2/100031.bin"
        string_val: "./dataset/vcc2016/bin/Training Set/SF2/100053.bin"
        string_val: "./dataset/vcc2016/bin/Training Set/SF2/100101.bin"
        string_val: "./dataset/vcc2016/bin/Training Set/SF2/100086.bin"
        string_val: "./dataset/vcc2016/bin/Training Set/SF2/100080.bin"
        string_val: "./dataset/vcc2016/bin/Training Set/SF2/100137.bin"
        string_val: "./dataset/vcc2016/bin/Training Set/SF2/100025.bin"
        string_val: "./dataset/vcc2016/bin/Training Set/SF2/100011.bin"
        string_val: "./dataset/vcc2016/bin/Training Set/SF2/100119.bin"
        string_val: "./dataset/vcc2016/bin/Training Set/SF2/100067.bin"
        string_val: "./dataset/vcc2016/bin/Training Set/SF2/100107.bin"
        string_val: "./dataset/vcc2016/bin/Training Set/SF2/100050.bin"
        string_val: "./dataset/vcc2016/bin/Training Set/SF2/100113.bin"
        string_val: "./dataset/vcc2016/bin/Training Set/SF2/100162.bin"
        string_val: "./dataset/vcc2016/bin/Training Set/SF2/100093.bin"
        string_val: "./dataset/vcc2016/bin/Training Set/SF2/100122.bin"
        string_val: "./dataset/vcc2016/bin/Training Set/SF2/100040.bin"
        string_val: "./dataset/vcc2016/bin/Training Set/SF2/100116.bin"
        string_val: "./dataset/vcc2016/bin/Training Set/SF2/100072.bin"
        string_val: "./dataset/vcc2016/bin/Training Set/SF2/100152.bin"
        string_val: "./dataset/vcc2016/bin/Training Set/SF2/100121.bin"
        string_val: "./dataset/vcc2016/bin/Training Set/TM2/100117.bin"
        string_val: "./dataset/vcc2016/bin/Training Set/TM2/100144.bin"
        string_val: "./dataset/vcc2016/bin/Training Set/TM2/100146.bin"
        string_val: "./dataset/vcc2016/bin/Training Set/TM2/100145.bin"
        string_val: "./dataset/vcc2016/bin/Training Set/TM2/100064.bin"
        string_val: "./dataset/vcc2016/bin/Training Set/TM2/100065.bin"
        string_val: "./dataset/vcc2016/bin/Training Set/TM2/100003.bin"
        string_val: "./dataset/vcc2016/bin/Training Set/TM2/100074.bin"
        string_val: "./dataset/vcc2016/bin/Training Set/TM2/100126.bin"
        string_val: "./dataset/vcc2016/bin/Training Set/TM2/100022.bin"
        string_val: "./dataset/vcc2016/bin/Training Set/TM2/100150.bin"
        string_val: "./dataset/vcc2016/bin/Training Set/TM2/100112.bin"
        string_val: "./dataset/vcc2016/bin/Training Set/TM2/100127.bin"
        string_val: "./dataset/vcc2016/bin/Training Set/TM2/100034.bin"
        string_val: "./dataset/vcc2016/bin/Training Set/TM2/100090.bin"
        string_val: "./dataset/vcc2016/bin/Training Set/TM2/100118.bin"
        string_val: "./dataset/vcc2016/bin/Training Set/TM2/100100.bin"
        string_val: "./dataset/vcc2016/bin/Training Set/TM2/100158.bin"
        string_val: "./dataset/vcc2016/bin/Training Set/TM2/100156.bin"
        string_val: "./dataset/vcc2016/bin/Training Set/TM2/100120.bin"
        string_val: "./dataset/vcc2016/bin/Training Set/TM2/100048.bin"
        string_val: "./dataset/vcc2016/bin/Training Set/TM2/100083.bin"
        string_val: "./dataset/vcc2016/bin/Training Set/TM2/100005.bin"
        string_val: "./dataset/vcc2016/bin/Training Set/TM2/100132.bin"
        string_val: "./dataset/vcc2016/bin/Training Set/TM2/100016.bin"
        string_val: "./dataset/vcc2016/bin/Training Set/TM2/100094.bin"
        string_val: "./dataset/vcc2016/bin/Training Set/TM2/100030.bin"
        string_val: "./dataset/vcc2016/bin/Training Set/TM2/100104.bin"
        string_val: "./dataset/vcc2016/bin/Training Set/TM2/100052.bin"
        string_val: "./dataset/vcc2016/bin/Training Set/TM2/100021.bin"
        string_val: "./dataset/vcc2016/bin/Training Set/TM2/100149.bin"
        string_val: "./dataset/vcc2016/bin/Training Set/TM2/100143.bin"
        string_val: "./dataset/vcc2016/bin/Training Set/TM2/100006.bin"
        string_val: "./dataset/vcc2016/bin/Training Set/TM2/100076.bin"
        string_val: "./dataset/vcc2016/bin/Training Set/TM2/100084.bin"
        string_val: "./dataset/vcc2016/bin/Training Set/TM2/100123.bin"
        string_val: "./dataset/vcc2016/bin/Training Set/TM2/100014.bin"
        string_val: "./dataset/vcc2016/bin/Training Set/TM2/100071.bin"
        string_val: "./dataset/vcc2016/bin/Training Set/TM2/100061.bin"
        string_val: "./dataset/vcc2016/bin/Training Set/TM2/100075.bin"
        string_val: "./dataset/vcc2016/bin/Training Set/TM2/100038.bin"
        string_val: "./dataset/vcc2016/bin/Training Set/TM2/100073.bin"
        string_val: "./dataset/vcc2016/bin/Training Set/TM2/100154.bin"
        string_val: "./dataset/vcc2016/bin/Training Set/TM2/100007.bin"
        string_val: "./dataset/vcc2016/bin/Training Set/TM2/100135.bin"
        string_val: "./dataset/vcc2016/bin/Training Set/TM2/100082.bin"
        string_val: "./dataset/vcc2016/bin/Training Set/TM2/100085.bin"
        string_val: "./dataset/vcc2016/bin/Training Set/TM2/100092.bin"
        string_val: "./dataset/vcc2016/bin/Training Set/TM2/100017.bin"
        string_val: "./dataset/vcc2016/bin/Training Set/TM2/100106.bin"
        string_val: "./dataset/vcc2016/bin/Training Set/TM2/100037.bin"
        string_val: "./dataset/vcc2016/bin/Training Set/TM2/100049.bin"
        string_val: "./dataset/vcc2016/bin/Training Set/TM2/100012.bin"
        string_val: "./dataset/vcc2016/bin/Training Set/TM2/100039.bin"
        string_val: "./dataset/vcc2016/bin/Training Set/TM2/100032.bin"
        string_val: "./dataset/vcc2016/bin/Training Set/TM2/100047.bin"
        string_val: "./dataset/vcc2016/bin/Training Set/TM2/100088.bin"
        string_val: "./dataset/vcc2016/bin/Training Set/TM2/100091.bin"
        string_val: "./dataset/vcc2016/bin/Training Set/TM2/100098.bin"
        string_val: "./dataset/vcc2016/bin/Training Set/TM2/100138.bin"
        string_val: "./dataset/vcc2016/bin/Training Set/TM2/100036.bin"
        string_val: "./dataset/vcc2016/bin/Training Set/TM2/100045.bin"
        string_val: "./dataset/vcc2016/bin/Training Set/TM2/100130.bin"
        string_val: "./dataset/vcc2016/bin/Training Set/TM2/100110.bin"
        string_val: "./dataset/vcc2016/bin/Training Set/TM2/100055.bin"
        string_val: "./dataset/vcc2016/bin/Training Set/TM2/100131.bin"
        string_val: "./dataset/vcc2016/bin/Training Set/TM2/100051.bin"
        string_val: "./dataset/vcc2016/bin/Training Set/TM2/100077.bin"
        string_val: "./dataset/vcc2016/bin/Training Set/TM2/100079.bin"
        string_val: "./dataset/vcc2016/bin/Training Set/TM2/100066.bin"
        string_val: "./dataset/vcc2016/bin/Training Set/TM2/100111.bin"
        string_val: "./dataset/vcc2016/bin/Training Set/TM2/100060.bin"
        string_val: "./dataset/vcc2016/bin/Training Set/TM2/100134.bin"
        string_val: "./dataset/vcc2016/bin/Training Set/TM2/100041.bin"
        string_val: "./dataset/vcc2016/bin/Training Set/TM2/100103.bin"
        string_val: "./dataset/vcc2016/bin/Training Set/TM2/100161.bin"
        string_val: "./dataset/vcc2016/bin/Training Set/TM2/100020.bin"
        string_val: "./dataset/vcc2016/bin/Training Set/TM2/100058.bin"
        string_val: "./dataset/vcc2016/bin/Training Set/TM2/100095.bin"
        string_val: "./dataset/vcc2016/bin/Training Set/TM2/100013.bin"
        string_val: "./dataset/vcc2016/bin/Training Set/TM2/100142.bin"
        string_val: "./dataset/vcc2016/bin/Training Set/TM2/100136.bin"
        string_val: "./dataset/vcc2016/bin/Training Set/TM2/100108.bin"
        string_val: "./dataset/vcc2016/bin/Training Set/TM2/100124.bin"
        string_val: "./dataset/vcc2016/bin/Training Set/TM2/100078.bin"
        string_val: "./dataset/vcc2016/bin/Training Set/TM2/100024.bin"
        string_val: "./dataset/vcc2016/bin/Training Set/TM2/100105.bin"
        string_val: "./dataset/vcc2016/bin/Training Set/TM2/100027.bin"
        string_val: "./dataset/vcc2016/bin/Training Set/TM2/100081.bin"
        string_val: "./dataset/vcc2016/bin/Training Set/TM2/100099.bin"
        string_val: "./dataset/vcc2016/bin/Training Set/TM2/100139.bin"
        string_val: "./dataset/vcc2016/bin/Training Set/TM2/100068.bin"
        string_val: "./dataset/vcc2016/bin/Training Set/TM2/100026.bin"
        string_val: "./dataset/vcc2016/bin/Training Set/TM2/100044.bin"
        string_val: "./dataset/vcc2016/bin/Training Set/TM2/100063.bin"
        string_val: "./dataset/vcc2016/bin/Training Set/TM2/100128.bin"
        string_val: "./dataset/vcc2016/bin/Training Set/TM2/100023.bin"
        string_val: "./dataset/vcc2016/bin/Training Set/TM2/100069.bin"
        string_val: "./dataset/vcc2016/bin/Training Set/TM2/100102.bin"
        string_val: "./dataset/vcc2016/bin/Training Set/TM2/100153.bin"
        string_val: "./dataset/vcc2016/bin/Training Set/TM2/100056.bin"
        string_val: "./dataset/vcc2016/bin/Training Set/TM2/100043.bin"
        string_val: "./dataset/vcc2016/bin/Training Set/TM2/100148.bin"
        string_val: "./dataset/vcc2016/bin/Training Set/TM2/100089.bin"
        string_val: "./dataset/vcc2016/bin/Training Set/TM2/100018.bin"
        string_val: "./dataset/vcc2016/bin/Training Set/TM2/100019.bin"
        string_val: "./dataset/vcc2016/bin/Training Set/TM2/100062.bin"
        string_val: "./dataset/vcc2016/bin/Training Set/TM2/100046.bin"
        string_val: "./dataset/vcc2016/bin/Training Set/TM2/100070.bin"
        string_val: "./dataset/vcc2016/bin/Training Set/TM2/100059.bin"
        string_val: "./dataset/vcc2016/bin/Training Set/TM2/100129.bin"
        string_val: "./dataset/vcc2016/bin/Training Set/TM2/100155.bin"
        string_val: "./dataset/vcc2016/bin/Training Set/TM2/100008.bin"
        string_val: "./dataset/vcc2016/bin/Training Set/TM2/100157.bin"
        string_val: "./dataset/vcc2016/bin/Training Set/TM2/100159.bin"
        string_val: "./dataset/vcc2016/bin/Training Set/TM2/100054.bin"
        string_val: "./dataset/vcc2016/bin/Training Set/TM2/100001.bin"
        string_val: "./dataset/vcc2016/bin/Training Set/TM2/100133.bin"
        string_val: "./dataset/vcc2016/bin/Training Set/TM2/100115.bin"
        string_val: "./dataset/vcc2016/bin/Training Set/TM2/100029.bin"
        string_val: "./dataset/vcc2016/bin/Training Set/TM2/100010.bin"
        string_val: "./dataset/vcc2016/bin/Training Set/TM2/100057.bin"
        string_val: "./dataset/vcc2016/bin/Training Set/TM2/100004.bin"
        string_val: "./dataset/vcc2016/bin/Training Set/TM2/100160.bin"
        string_val: "./dataset/vcc2016/bin/Training Set/TM2/100009.bin"
        string_val: "./dataset/vcc2016/bin/Training Set/TM2/100015.bin"
        string_val: "./dataset/vcc2016/bin/Training Set/TM2/100097.bin"
        string_val: "./dataset/vcc2016/bin/Training Set/TM2/100141.bin"
        string_val: "./dataset/vcc2016/bin/Training Set/TM2/100109.bin"
        string_val: "./dataset/vcc2016/bin/Training Set/TM2/100028.bin"
        string_val: "./dataset/vcc2016/bin/Training Set/TM2/100002.bin"
        string_val: "./dataset/vcc2016/bin/Training Set/TM2/100125.bin"
        string_val: "./dataset/vcc2016/bin/Training Set/TM2/100087.bin"
        string_val: "./dataset/vcc2016/bin/Training Set/TM2/100033.bin"
        string_val: "./dataset/vcc2016/bin/Training Set/TM2/100042.bin"
        string_val: "./dataset/vcc2016/bin/Training Set/TM2/100035.bin"
        string_val: "./dataset/vcc2016/bin/Training Set/TM2/100147.bin"
        string_val: "./dataset/vcc2016/bin/Training Set/TF2/100117.bin"
        string_val: "./dataset/vcc2016/bin/Training Set/TF2/100144.bin"
        string_val: "./dataset/vcc2016/bin/Training Set/TF2/100146.bin"
        string_val: "./dataset/vcc2016/bin/Training Set/TF2/100145.bin"
        string_val: "./dataset/vcc2016/bin/Training Set/TF2/100064.bin"
        string_val: "./dataset/vcc2016/bin/Training Set/TF2/100065.bin"
        string_val: "./dataset/vcc2016/bin/Training Set/TM2/100151.bin"
        string_val: "./dataset/vcc2016/bin/Training Set/TM2/100114.bin"
        string_val: "./dataset/vcc2016/bin/Training Set/TM2/100096.bin"
        string_val: "./dataset/vcc2016/bin/Training Set/TM2/100140.bin"
        string_val: "./dataset/vcc2016/bin/Training Set/TF2/100003.bin"
        string_val: "./dataset/vcc2016/bin/Training Set/TM2/100031.bin"
        string_val: "./dataset/vcc2016/bin/Training Set/TF2/100074.bin"
        string_val: "./dataset/vcc2016/bin/Training Set/TM2/100053.bin"
        string_val: "./dataset/vcc2016/bin/Training Set/TF2/100126.bin"
        string_val: "./dataset/vcc2016/bin/Training Set/TM2/100101.bin"
        string_val: "./dataset/vcc2016/bin/Training Set/TF2/100022.bin"
        string_val: "./dataset/vcc2016/bin/Training Set/TM2/100086.bin"
        string_val: "./dataset/vcc2016/bin/Training Set/TF2/100150.bin"
        string_val: "./dataset/vcc2016/bin/Training Set/TM2/100080.bin"
        string_val: "./dataset/vcc2016/bin/Training Set/TF2/100112.bin"
        string_val: "./dataset/vcc2016/bin/Training Set/TM2/100137.bin"
        string_val: "./dataset/vcc2016/bin/Training Set/TF2/100127.bin"
        string_val: "./dataset/vcc2016/bin/Training Set/TM2/100025.bin"
        string_val: "./dataset/vcc2016/bin/Training Set/TF2/100034.bin"
        string_val: "./dataset/vcc2016/bin/Training Set/TM2/100011.bin"
        string_val: "./dataset/vcc2016/bin/Training Set/TF2/100090.bin"
        string_val: "./dataset/vcc2016/bin/Training Set/TM2/100119.bin"
        string_val: "./dataset/vcc2016/bin/Training Set/TF2/100118.bin"
        string_val: "./dataset/vcc2016/bin/Training Set/TM2/100067.bin"
        string_val: "./dataset/vcc2016/bin/Training Set/TF2/100100.bin"
        string_val: "./dataset/vcc2016/bin/Training Set/TM2/100107.bin"
        string_val: "./dataset/vcc2016/bin/Training Set/TF2/100158.bin"
        string_val: "./dataset/vcc2016/bin/Training Set/TM2/100050.bin"
        string_val: "./dataset/vcc2016/bin/Training Set/TF2/100156.bin"
        string_val: "./dataset/vcc2016/bin/Training Set/TM2/100113.bin"
        string_val: "./dataset/vcc2016/bin/Training Set/TF2/100120.bin"
        string_val: "./dataset/vcc2016/bin/Training Set/TM2/100162.bin"
        string_val: "./dataset/vcc2016/bin/Training Set/TF2/100048.bin"
        string_val: "./dataset/vcc2016/bin/Training Set/TM2/100093.bin"
        string_val: "./dataset/vcc2016/bin/Training Set/TF2/100083.bin"
        string_val: "./dataset/vcc2016/bin/Training Set/TM2/100122.bin"
        string_val: "./dataset/vcc2016/bin/Training Set/TF2/100005.bin"
        string_val: "./dataset/vcc2016/bin/Training Set/TM2/100040.bin"
        string_val: "./dataset/vcc2016/bin/Training Set/TF2/100132.bin"
        string_val: "./dataset/vcc2016/bin/Training Set/TM2/100116.bin"
        string_val: "./dataset/vcc2016/bin/Training Set/TF2/100016.bin"
        string_val: "./dataset/vcc2016/bin/Training Set/TM2/100072.bin"
        string_val: "./dataset/vcc2016/bin/Training Set/TF2/100094.bin"
        string_val: "./dataset/vcc2016/bin/Training Set/TM2/100152.bin"
        string_val: "./dataset/vcc2016/bin/Training Set/TF2/100030.bin"
        string_val: "./dataset/vcc2016/bin/Training Set/TM2/100121.bin"
        string_val: "./dataset/vcc2016/bin/Training Set/TF2/100104.bin"
        string_val: "./dataset/vcc2016/bin/Training Set/TF2/100052.bin"
        string_val: "./dataset/vcc2016/bin/Training Set/TF2/100021.bin"
        string_val: "./dataset/vcc2016/bin/Training Set/TF2/100149.bin"
        string_val: "./dataset/vcc2016/bin/Training Set/TF2/100143.bin"
        string_val: "./dataset/vcc2016/bin/Training Set/TF2/100006.bin"
        string_val: "./dataset/vcc2016/bin/Training Set/TF2/100076.bin"
        string_val: "./dataset/vcc2016/bin/Training Set/TF2/100084.bin"
        string_val: "./dataset/vcc2016/bin/Training Set/TF2/100123.bin"
        string_val: "./dataset/vcc2016/bin/Training Set/TF2/100014.bin"
        string_val: "./dataset/vcc2016/bin/Training Set/TF2/100071.bin"
        string_val: "./dataset/vcc2016/bin/Training Set/TF2/100061.bin"
        string_val: "./dataset/vcc2016/bin/Training Set/TF2/100075.bin"
        string_val: "./dataset/vcc2016/bin/Training Set/TF2/100038.bin"
        string_val: "./dataset/vcc2016/bin/Training Set/TF2/100073.bin"
        string_val: "./dataset/vcc2016/bin/Training Set/TF2/100154.bin"
        string_val: "./dataset/vcc2016/bin/Training Set/TF2/100007.bin"
        string_val: "./dataset/vcc2016/bin/Training Set/TF2/100135.bin"
        string_val: "./dataset/vcc2016/bin/Training Set/TF2/100082.bin"
        string_val: "./dataset/vcc2016/bin/Training Set/TF2/100085.bin"
        string_val: "./dataset/vcc2016/bin/Training Set/TF2/100092.bin"
        string_val: "./dataset/vcc2016/bin/Training Set/TF2/100017.bin"
        string_val: "./dataset/vcc2016/bin/Training Set/TF2/100106.bin"
        string_val: "./dataset/vcc2016/bin/Training Set/TF2/100037.bin"
        string_val: "./dataset/vcc2016/bin/Training Set/TF2/100049.bin"
        string_val: "./dataset/vcc2016/bin/Training Set/TF2/100012.bin"
        string_val: "./dataset/vcc2016/bin/Training Set/TF2/100039.bin"
        string_val: "./dataset/vcc2016/bin/Training Set/TF2/100032.bin"
        string_val: "./dataset/vcc2016/bin/Training Set/TF2/100047.bin"
        string_val: "./dataset/vcc2016/bin/Training Set/TF2/100088.bin"
        string_val: "./dataset/vcc2016/bin/Training Set/TF2/100091.bin"
        string_val: "./dataset/vcc2016/bin/Training Set/TF2/100098.bin"
        string_val: "./dataset/vcc2016/bin/Training Set/TF2/100138.bin"
        string_val: "./dataset/vcc2016/bin/Training Set/TF2/100036.bin"
        string_val: "./dataset/vcc2016/bin/Training Set/TF2/100045.bin"
        string_val: "./dataset/vcc2016/bin/Training Set/TF2/100130.bin"
        string_val: "./dataset/vcc2016/bin/Training Set/TF2/100110.bin"
        string_val: "./dataset/vcc2016/bin/Training Set/TF2/100055.bin"
        string_val: "./dataset/vcc2016/bin/Training Set/TF2/100131.bin"
        string_val: "./dataset/vcc2016/bin/Training Set/TF2/100051.bin"
        string_val: "./dataset/vcc2016/bin/Training Set/TF2/100077.bin"
        string_val: "./dataset/vcc2016/bin/Training Set/TF2/100079.bin"
        string_val: "./dataset/vcc2016/bin/Training Set/TF2/100066.bin"
        string_val: "./dataset/vcc2016/bin/Training Set/TF2/100111.bin"
        string_val: "./dataset/vcc2016/bin/Training Set/TF2/100060.bin"
        string_val: "./dataset/vcc2016/bin/Training Set/TF2/100134.bin"
        string_val: "./dataset/vcc2016/bin/Training Set/TF2/100041.bin"
        string_val: "./dataset/vcc2016/bin/Training Set/TF2/100103.bin"
        string_val: "./dataset/vcc2016/bin/Training Set/TF2/100161.bin"
        string_val: "./dataset/vcc2016/bin/Training Set/TF2/100020.bin"
        string_val: "./dataset/vcc2016/bin/Training Set/TF2/100058.bin"
        string_val: "./dataset/vcc2016/bin/Training Set/TF2/100095.bin"
        string_val: "./dataset/vcc2016/bin/Training Set/TF2/100013.bin"
        string_val: "./dataset/vcc2016/bin/Training Set/TF2/100142.bin"
        string_val: "./dataset/vcc2016/bin/Training Set/TF2/100136.bin"
        string_val: "./dataset/vcc2016/bin/Training Set/TF2/100108.bin"
        string_val: "./dataset/vcc2016/bin/Training Set/TF2/100124.bin"
        string_val: "./dataset/vcc2016/bin/Training Set/TF2/100078.bin"
        string_val: "./dataset/vcc2016/bin/Training Set/TF2/100024.bin"
        string_val: "./dataset/vcc2016/bin/Training Set/TF2/100105.bin"
        string_val: "./dataset/vcc2016/bin/Training Set/TF2/100027.bin"
        string_val: "./dataset/vcc2016/bin/Training Set/TF2/100081.bin"
        string_val: "./dataset/vcc2016/bin/Training Set/TF2/100099.bin"
        string_val: "./dataset/vcc2016/bin/Training Set/TF2/100139.bin"
        string_val: "./dataset/vcc2016/bin/Training Set/TF2/100068.bin"
        string_val: "./dataset/vcc2016/bin/Training Set/TF2/100026.bin"
        string_val: "./dataset/vcc2016/bin/Training Set/TF2/100044.bin"
        string_val: "./dataset/vcc2016/bin/Training Set/TF2/100063.bin"
        string_val: "./dataset/vcc2016/bin/Training Set/TF2/100128.bin"
        string_val: "./dataset/vcc2016/bin/Training Set/TF2/100023.bin"
        string_val: "./dataset/vcc2016/bin/Training Set/TF2/100069.bin"
        string_val: "./dataset/vcc2016/bin/Training Set/TF2/100102.bin"
        string_val: "./dataset/vcc2016/bin/Training Set/TF2/100153.bin"
        string_val: "./dataset/vcc2016/bin/Training Set/TF2/100056.bin"
        string_val: "./dataset/vcc2016/bin/Training Set/TF2/100043.bin"
        string_val: "./dataset/vcc2016/bin/Training Set/TF2/100148.bin"
        string_val: "./dataset/vcc2016/bin/Training Set/TF2/100089.bin"
        string_val: "./dataset/vcc2016/bin/Training Set/TF2/100018.bin"
        string_val: "./dataset/vcc2016/bin/Training Set/TF2/100019.bin"
        string_val: "./dataset/vcc2016/bin/Training Set/TF2/100062.bin"
        string_val: "./dataset/vcc2016/bin/Training Set/TF2/100046.bin"
        string_val: "./dataset/vcc2016/bin/Training Set/TF2/100070.bin"
        string_val: "./dataset/vcc2016/bin/Training Set/TF2/100059.bin"
        string_val: "./dataset/vcc2016/bin/Training Set/TF2/100129.bin"
        string_val: "./dataset/vcc2016/bin/Training Set/TF2/100155.bin"
        string_val: "./dataset/vcc2016/bin/Training Set/TF2/100008.bin"
        string_val: "./dataset/vcc2016/bin/Training Set/TF2/100157.bin"
        string_val: "./dataset/vcc2016/bin/Training Set/TF2/100159.bin"
        string_val: "./dataset/vcc2016/bin/Training Set/TF2/100054.bin"
        string_val: "./dataset/vcc2016/bin/Training Set/TF2/100001.bin"
        string_val: "./dataset/vcc2016/bin/Training Set/TF2/100133.bin"
        string_val: "./dataset/vcc2016/bin/Training Set/TF2/100115.bin"
        string_val: "./dataset/vcc2016/bin/Training Set/TF2/100029.bin"
        string_val: "./dataset/vcc2016/bin/Training Set/TF2/100010.bin"
        string_val: "./dataset/vcc2016/bin/Training Set/TF2/100057.bin"
        string_val: "./dataset/vcc2016/bin/Training Set/TF2/100004.bin"
        string_val: "./dataset/vcc2016/bin/Training Set/TF2/100160.bin"
        string_val: "./dataset/vcc2016/bin/Training Set/TF2/100009.bin"
        string_val: "./dataset/vcc2016/bin/Training Set/TF2/100015.bin"
        string_val: "./dataset/vcc2016/bin/Training Set/TF2/100097.bin"
        string_val: "./dataset/vcc2016/bin/Training Set/TF2/100141.bin"
        string_val: "./dataset/vcc2016/bin/Training Set/TF2/100109.bin"
        string_val: "./dataset/vcc2016/bin/Training Set/TF2/100028.bin"
        string_val: "./dataset/vcc2016/bin/Training Set/TF2/100002.bin"
        string_val: "./dataset/vcc2016/bin/Training Set/TF2/100125.bin"
        string_val: "./dataset/vcc2016/bin/Training Set/TF2/100087.bin"
        string_val: "./dataset/vcc2016/bin/Training Set/TF2/100033.bin"
        string_val: "./dataset/vcc2016/bin/Training Set/TF2/100042.bin"
        string_val: "./dataset/vcc2016/bin/Training Set/TF2/100035.bin"
        string_val: "./dataset/vcc2016/bin/Training Set/TF2/100147.bin"
        string_val: "./dataset/vcc2016/bin/Training Set/TF2/100151.bin"
        string_val: "./dataset/vcc2016/bin/Training Set/TF2/100114.bin"
        string_val: "./dataset/vcc2016/bin/Training Set/TF2/100096.bin"
        string_val: "./dataset/vcc2016/bin/Training Set/TF2/100140.bin"
        string_val: "./dataset/vcc2016/bin/Training Set/TF2/100031.bin"
        string_val: "./dataset/vcc2016/bin/Training Set/TF2/100053.bin"
        string_val: "./dataset/vcc2016/bin/Training Set/TF2/100101.bin"
        string_val: "./dataset/vcc2016/bin/Training Set/TF2/100086.bin"
        string_val: "./dataset/vcc2016/bin/Training Set/TF2/100080.bin"
        string_val: "./dataset/vcc2016/bin/Training Set/TF2/100137.bin"
        string_val: "./dataset/vcc2016/bin/Training Set/TF2/100025.bin"
        string_val: "./dataset/vcc2016/bin/Training Set/TF2/100011.bin"
        string_val: "./dataset/vcc2016/bin/Training Set/TF2/100119.bin"
        string_val: "./dataset/vcc2016/bin/Training Set/TF2/100067.bin"
        string_val: "./dataset/vcc2016/bin/Training Set/TF2/100107.bin"
        string_val: "./dataset/vcc2016/bin/Training Set/TF2/100050.bin"
        string_val: "./dataset/vcc2016/bin/Training Set/TF2/100113.bin"
        string_val: "./dataset/vcc2016/bin/Training Set/TF2/100162.bin"
        string_val: "./dataset/vcc2016/bin/Training Set/TF2/100093.bin"
        string_val: "./dataset/vcc2016/bin/Training Set/TF2/100122.bin"
        string_val: "./dataset/vcc2016/bin/Training Set/TF2/100040.bin"
        string_val: "./dataset/vcc2016/bin/Training Set/TF2/100116.bin"
        string_val: "./dataset/vcc2016/bin/Training Set/TF2/100072.bin"
        string_val: "./dataset/vcc2016/bin/Training Set/TF2/100152.bin"
        string_val: "./dataset/vcc2016/bin/Training Set/TF2/100121.bin"
        string_val: "./dataset/vcc2016/bin/Training Set/TF1/100117.bin"
        string_val: "./dataset/vcc2016/bin/Training Set/TF1/100144.bin"
        string_val: "./dataset/vcc2016/bin/Training Set/TF1/100146.bin"
        string_val: "./dataset/vcc2016/bin/Training Set/TF1/100145.bin"
        string_val: "./dataset/vcc2016/bin/Training Set/TF1/100064.bin"
        string_val: "./dataset/vcc2016/bin/Training Set/TF1/100065.bin"
        string_val: "./dataset/vcc2016/bin/Training Set/TF1/100003.bin"
        string_val: "./dataset/vcc2016/bin/Training Set/TF1/100074.bin"
        string_val: "./dataset/vcc2016/bin/Training Set/TF1/100126.bin"
        string_val: "./dataset/vcc2016/bin/Training Set/TF1/100022.bin"
        string_val: "./dataset/vcc2016/bin/Training Set/TF1/100150.bin"
        string_val: "./dataset/vcc2016/bin/Training Set/TF1/100112.bin"
        string_val: "./dataset/vcc2016/bin/Training Set/TF1/100127.bin"
        string_val: "./dataset/vcc2016/bin/Training Set/TF1/100034.bin"
        string_val: "./dataset/vcc2016/bin/Training Set/TF1/100090.bin"
        string_val: "./dataset/vcc2016/bin/Training Set/TF1/100118.bin"
        string_val: "./dataset/vcc2016/bin/Training Set/TF1/100100.bin"
        string_val: "./dataset/vcc2016/bin/Training Set/TF1/100158.bin"
        string_val: "./dataset/vcc2016/bin/Training Set/TF1/100156.bin"
        string_val: "./dataset/vcc2016/bin/Training Set/TF1/100120.bin"
        string_val: "./dataset/vcc2016/bin/Training Set/TF1/100048.bin"
        string_val: "./dataset/vcc2016/bin/Training Set/TF1/100083.bin"
        string_val: "./dataset/vcc2016/bin/Training Set/TF1/100005.bin"
        string_val: "./dataset/vcc2016/bin/Training Set/TF1/100132.bin"
        string_val: "./dataset/vcc2016/bin/Training Set/TF1/100016.bin"
        string_val: "./dataset/vcc2016/bin/Training Set/TF1/100094.bin"
        string_val: "./dataset/vcc2016/bin/Training Set/TF1/100030.bin"
        string_val: "./dataset/vcc2016/bin/Training Set/TF1/100104.bin"
        string_val: "./dataset/vcc2016/bin/Training Set/TF1/100052.bin"
        string_val: "./dataset/vcc2016/bin/Training Set/TF1/100021.bin"
        string_val: "./dataset/vcc2016/bin/Training Set/TF1/100149.bin"
        string_val: "./dataset/vcc2016/bin/Training Set/TF1/100143.bin"
        string_val: "./dataset/vcc2016/bin/Training Set/TF1/100006.bin"
        string_val: "./dataset/vcc2016/bin/Training Set/TF1/100076.bin"
        string_val: "./dataset/vcc2016/bin/Training Set/TF1/100084.bin"
        string_val: "./dataset/vcc2016/bin/Training Set/TF1/100123.bin"
        string_val: "./dataset/vcc2016/bin/Training Set/TF1/100014.bin"
        string_val: "./dataset/vcc2016/bin/Training Set/TF1/100071.bin"
        string_val: "./dataset/vcc2016/bin/Training Set/TF1/100061.bin"
        string_val: "./dataset/vcc2016/bin/Training Set/TF1/100075.bin"
        string_val: "./dataset/vcc2016/bin/Training Set/TF1/100038.bin"
        string_val: "./dataset/vcc2016/bin/Training Set/TF1/100073.bin"
        string_val: "./dataset/vcc2016/bin/Training Set/TF1/100154.bin"
        string_val: "./dataset/vcc2016/bin/Training Set/TF1/100007.bin"
        string_val: "./dataset/vcc2016/bin/Training Set/TF1/100135.bin"
        string_val: "./dataset/vcc2016/bin/Training Set/TF1/100082.bin"
        string_val: "./dataset/vcc2016/bin/Training Set/TF1/100085.bin"
        string_val: "./dataset/vcc2016/bin/Training Set/TF1/100092.bin"
        string_val: "./dataset/vcc2016/bin/Training Set/TF1/100017.bin"
        string_val: "./dataset/vcc2016/bin/Training Set/TF1/100106.bin"
        string_val: "./dataset/vcc2016/bin/Training Set/TF1/100037.bin"
        string_val: "./dataset/vcc2016/bin/Training Set/TF1/100049.bin"
        string_val: "./dataset/vcc2016/bin/Training Set/TF1/100012.bin"
        string_val: "./dataset/vcc2016/bin/Training Set/TF1/100039.bin"
        string_val: "./dataset/vcc2016/bin/Training Set/TF1/100032.bin"
        string_val: "./dataset/vcc2016/bin/Training Set/TF1/100047.bin"
        string_val: "./dataset/vcc2016/bin/Training Set/TF1/100088.bin"
        string_val: "./dataset/vcc2016/bin/Training Set/TF1/100091.bin"
        string_val: "./dataset/vcc2016/bin/Training Set/TF1/100098.bin"
        string_val: "./dataset/vcc2016/bin/Training Set/TF1/100138.bin"
        string_val: "./dataset/vcc2016/bin/Training Set/TF1/100036.bin"
        string_val: "./dataset/vcc2016/bin/Training Set/TF1/100045.bin"
        string_val: "./dataset/vcc2016/bin/Training Set/TF1/100130.bin"
        string_val: "./dataset/vcc2016/bin/Training Set/TF1/100110.bin"
        string_val: "./dataset/vcc2016/bin/Training Set/TF1/100055.bin"
        string_val: "./dataset/vcc2016/bin/Training Set/TF1/100131.bin"
        string_val: "./dataset/vcc2016/bin/Training Set/TF1/100051.bin"
        string_val: "./dataset/vcc2016/bin/Training Set/TF1/100077.bin"
        string_val: "./dataset/vcc2016/bin/Training Set/TF1/100079.bin"
        string_val: "./dataset/vcc2016/bin/Training Set/TF1/100066.bin"
        string_val: "./dataset/vcc2016/bin/Training Set/TF1/100111.bin"
        string_val: "./dataset/vcc2016/bin/Training Set/TF1/100060.bin"
        string_val: "./dataset/vcc2016/bin/Training Set/TF1/100134.bin"
        string_val: "./dataset/vcc2016/bin/Training Set/TF1/100041.bin"
        string_val: "./dataset/vcc2016/bin/Training Set/TF1/100103.bin"
        string_val: "./dataset/vcc2016/bin/Training Set/TF1/100161.bin"
        string_val: "./dataset/vcc2016/bin/Training Set/TF1/100020.bin"
        string_val: "./dataset/vcc2016/bin/Training Set/TF1/100058.bin"
        string_val: "./dataset/vcc2016/bin/Training Set/TF1/100095.bin"
        string_val: "./dataset/vcc2016/bin/Training Set/TF1/100013.bin"
        string_val: "./dataset/vcc2016/bin/Training Set/TF1/100142.bin"
        string_val: "./dataset/vcc2016/bin/Training Set/TF1/100136.bin"
        string_val: "./dataset/vcc2016/bin/Training Set/TF1/100108.bin"
        string_val: "./dataset/vcc2016/bin/Training Set/TF1/100124.bin"
        string_val: "./dataset/vcc2016/bin/Training Set/TF1/100078.bin"
        string_val: "./dataset/vcc2016/bin/Training Set/TF1/100024.bin"
        string_val: "./dataset/vcc2016/bin/Training Set/TF1/100105.bin"
        string_val: "./dataset/vcc2016/bin/Training Set/TF1/100027.bin"
        string_val: "./dataset/vcc2016/bin/Training Set/TF1/100081.bin"
        string_val: "./dataset/vcc2016/bin/Training Set/TF1/100099.bin"
        string_val: "./dataset/vcc2016/bin/Training Set/TF1/100139.bin"
        string_val: "./dataset/vcc2016/bin/Training Set/TF1/100068.bin"
        string_val: "./dataset/vcc2016/bin/Training Set/TF1/100026.bin"
        string_val: "./dataset/vcc2016/bin/Training Set/TF1/100044.bin"
        string_val: "./dataset/vcc2016/bin/Training Set/TF1/100063.bin"
        string_val: "./dataset/vcc2016/bin/Training Set/TF1/100128.bin"
        string_val: "./dataset/vcc2016/bin/Training Set/TF1/100023.bin"
        string_val: "./dataset/vcc2016/bin/Training Set/TF1/100069.bin"
        string_val: "./dataset/vcc2016/bin/Training Set/TF1/100102.bin"
        string_val: "./dataset/vcc2016/bin/Training Set/TF1/100153.bin"
        string_val: "./dataset/vcc2016/bin/Training Set/TF1/100056.bin"
        string_val: "./dataset/vcc2016/bin/Training Set/TF1/100043.bin"
        string_val: "./dataset/vcc2016/bin/Training Set/TF1/100148.bin"
        string_val: "./dataset/vcc2016/bin/Training Set/TF1/100089.bin"
        string_val: "./dataset/vcc2016/bin/Training Set/TF1/100018.bin"
        string_val: "./dataset/vcc2016/bin/Training Set/TF1/100019.bin"
        string_val: "./dataset/vcc2016/bin/Training Set/TF1/100062.bin"
        string_val: "./dataset/vcc2016/bin/Training Set/TF1/100046.bin"
        string_val: "./dataset/vcc2016/bin/Training Set/TF1/100070.bin"
        string_val: "./dataset/vcc2016/bin/Training Set/TF1/100059.bin"
        string_val: "./dataset/vcc2016/bin/Training Set/TF1/100129.bin"
        string_val: "./dataset/vcc2016/bin/Training Set/TF1/100155.bin"
        string_val: "./dataset/vcc2016/bin/Training Set/TF1/100008.bin"
        string_val: "./dataset/vcc2016/bin/Training Set/TF1/100157.bin"
        string_val: "./dataset/vcc2016/bin/Training Set/TF1/100159.bin"
        string_val: "./dataset/vcc2016/bin/Training Set/TF1/100054.bin"
        string_val: "./dataset/vcc2016/bin/Training Set/TF1/100001.bin"
        string_val: "./dataset/vcc2016/bin/Training Set/TF1/100133.bin"
        string_val: "./dataset/vcc2016/bin/Training Set/TF1/100115.bin"
        string_val: "./dataset/vcc2016/bin/Training Set/TF1/100029.bin"
        string_val: "./dataset/vcc2016/bin/Training Set/TF1/100010.bin"
        string_val: "./dataset/vcc2016/bin/Training Set/TF1/100057.bin"
        string_val: "./dataset/vcc2016/bin/Training Set/TF1/100004.bin"
        string_val: "./dataset/vcc2016/bin/Training Set/TF1/100160.bin"
        string_val: "./dataset/vcc2016/bin/Training Set/TF1/100009.bin"
        string_val: "./dataset/vcc2016/bin/Training Set/TF1/100015.bin"
        string_val: "./dataset/vcc2016/bin/Training Set/TF1/100097.bin"
        string_val: "./dataset/vcc2016/bin/Training Set/TF1/100141.bin"
        string_val: "./dataset/vcc2016/bin/Training Set/TF1/100109.bin"
        string_val: "./dataset/vcc2016/bin/Training Set/TF1/100028.bin"
        string_val: "./dataset/vcc2016/bin/Training Set/TF1/100002.bin"
        string_val: "./dataset/vcc2016/bin/Training Set/TF1/100125.bin"
        string_val: "./dataset/vcc2016/bin/Training Set/TF1/100087.bin"
        string_val: "./dataset/vcc2016/bin/Training Set/TF1/100033.bin"
        string_val: "./dataset/vcc2016/bin/Training Set/TF1/100042.bin"
        string_val: "./dataset/vcc2016/bin/Training Set/TF1/100035.bin"
        string_val: "./dataset/vcc2016/bin/Training Set/TF1/100147.bin"
        string_val: "./dataset/vcc2016/bin/Training Set/TF1/100151.bin"
        string_val: "./dataset/vcc2016/bin/Training Set/TF1/100114.bin"
        string_val: "./dataset/vcc2016/bin/Training Set/TF1/100096.bin"
        string_val: "./dataset/vcc2016/bin/Training Set/TF1/100140.bin"
        string_val: "./dataset/vcc2016/bin/Training Set/TF1/100031.bin"
        string_val: "./dataset/vcc2016/bin/Training Set/TF1/100053.bin"
        string_val: "./dataset/vcc2016/bin/Training Set/TF1/100101.bin"
        string_val: "./dataset/vcc2016/bin/Training Set/TF1/100086.bin"
        string_val: "./dataset/vcc2016/bin/Training Set/TF1/100080.bin"
        string_val: "./dataset/vcc2016/bin/Training Set/TF1/100137.bin"
        string_val: "./dataset/vcc2016/bin/Training Set/TF1/100025.bin"
        string_val: "./dataset/vcc2016/bin/Training Set/TF1/100011.bin"
        string_val: "./dataset/vcc2016/bin/Training Set/TF1/100119.bin"
        string_val: "./dataset/vcc2016/bin/Training Set/TF1/100067.bin"
        string_val: "./dataset/vcc2016/bin/Training Set/TF1/100107.bin"
        string_val: "./dataset/vcc2016/bin/Training Set/TF1/100050.bin"
        string_val: "./dataset/vcc2016/bin/Training Set/TF1/100113.bin"
        string_val: "./dataset/vcc2016/bin/Training Set/TF1/100162.bin"
        string_val: "./dataset/vcc2016/bin/Training Set/TF1/100093.bin"
        string_val: "./dataset/vcc2016/bin/Training Set/TF1/100122.bin"
        string_val: "./dataset/vcc2016/bin/Training Set/TF1/100040.bin"
        string_val: "./dataset/vcc2016/bin/Training Set/TF1/100116.bin"
        string_val: "./dataset/vcc2016/bin/Training Set/TF1/100072.bin"
        string_val: "./dataset/vcc2016/bin/Training Set/TF1/100152.bin"
        string_val: "./dataset/vcc2016/bin/Training Set/TF1/100121.bin"
      }
    }
  }
}
node {
  name: "InputSpectralFrame/input_producer/Size"
  op: "Const"
  attr {
    key: "_output_shapes"
    value {
      list {
        shape {
        }
      }
    }
  }
  attr {
    key: "dtype"
    value {
      type: DT_INT32
    }
  }
  attr {
    key: "value"
    value {
      tensor {
        dtype: DT_INT32
        tensor_shape {
        }
        int_val: 1458
      }
    }
  }
}
node {
  name: "InputSpectralFrame/input_producer/Greater/y"
  op: "Const"
  attr {
    key: "_output_shapes"
    value {
      list {
        shape {
        }
      }
    }
  }
  attr {
    key: "dtype"
    value {
      type: DT_INT32
    }
  }
  attr {
    key: "value"
    value {
      tensor {
        dtype: DT_INT32
        tensor_shape {
        }
        int_val: 0
      }
    }
  }
}
node {
  name: "InputSpectralFrame/input_producer/Greater"
  op: "Greater"
  input: "InputSpectralFrame/input_producer/Size"
  input: "InputSpectralFrame/input_producer/Greater/y"
  attr {
    key: "T"
    value {
      type: DT_INT32
    }
  }
  attr {
    key: "_output_shapes"
    value {
      list {
        shape {
        }
      }
    }
  }
}
node {
  name: "InputSpectralFrame/input_producer/Assert/Const"
  op: "Const"
  attr {
    key: "_output_shapes"
    value {
      list {
        shape {
        }
      }
    }
  }
  attr {
    key: "dtype"
    value {
      type: DT_STRING
    }
  }
  attr {
    key: "value"
    value {
      tensor {
        dtype: DT_STRING
        tensor_shape {
        }
        string_val: "string_input_producer requires a non-null input tensor"
      }
    }
  }
}
node {
  name: "InputSpectralFrame/input_producer/Assert/Assert/data_0"
  op: "Const"
  attr {
    key: "_output_shapes"
    value {
      list {
        shape {
        }
      }
    }
  }
  attr {
    key: "dtype"
    value {
      type: DT_STRING
    }
  }
  attr {
    key: "value"
    value {
      tensor {
        dtype: DT_STRING
        tensor_shape {
        }
        string_val: "string_input_producer requires a non-null input tensor"
      }
    }
  }
}
node {
  name: "InputSpectralFrame/input_producer/Assert/Assert"
  op: "Assert"
  input: "InputSpectralFrame/input_producer/Greater"
  input: "InputSpectralFrame/input_producer/Assert/Assert/data_0"
  attr {
    key: "T"
    value {
      list {
        type: DT_STRING
      }
    }
  }
  attr {
    key: "_has_manual_control_dependencies"
    value {
      b: true
    }
  }
  attr {
    key: "summarize"
    value {
      i: 3
    }
  }
}
node {
  name: "InputSpectralFrame/input_producer/Identity"
  op: "Identity"
  input: "InputSpectralFrame/input_producer/Const"
  input: "^InputSpectralFrame/input_producer/Assert/Assert"
  attr {
    key: "T"
    value {
      type: DT_STRING
    }
  }
  attr {
    key: "_output_shapes"
    value {
      list {
        shape {
          dim {
            size: 1458
          }
        }
      }
    }
  }
}
node {
  name: "InputSpectralFrame/input_producer/RandomShuffle"
  op: "RandomShuffle"
  input: "InputSpectralFrame/input_producer/Identity"
  attr {
    key: "T"
    value {
      type: DT_STRING
    }
  }
  attr {
    key: "_output_shapes"
    value {
      list {
        shape {
          dim {
            size: 1458
          }
        }
      }
    }
  }
  attr {
    key: "seed"
    value {
      i: 0
    }
  }
  attr {
    key: "seed2"
    value {
      i: 0
    }
  }
}
node {
  name: "InputSpectralFrame/input_producer"
  op: "FIFOQueueV2"
  device: "/device:CPU:*"
  attr {
    key: "_output_shapes"
    value {
      list {
        shape {
        }
      }
    }
  }
  attr {
    key: "capacity"
    value {
      i: 32
    }
  }
  attr {
    key: "component_types"
    value {
      list {
        type: DT_STRING
      }
    }
  }
  attr {
    key: "container"
    value {
      s: ""
    }
  }
  attr {
    key: "shapes"
    value {
      list {
        shape {
        }
      }
    }
  }
  attr {
    key: "shared_name"
    value {
      s: ""
    }
  }
}
node {
  name: "InputSpectralFrame/input_producer/input_producer_EnqueueMany"
  op: "QueueEnqueueManyV2"
  input: "InputSpectralFrame/input_producer"
  input: "InputSpectralFrame/input_producer/RandomShuffle"
  attr {
    key: "Tcomponents"
    value {
      list {
        type: DT_STRING
      }
    }
  }
  attr {
    key: "timeout_ms"
    value {
      i: -1
    }
  }
}
node {
  name: "InputSpectralFrame/input_producer/input_producer_Close"
  op: "QueueCloseV2"
  input: "InputSpectralFrame/input_producer"
  attr {
    key: "cancel_pending_enqueues"
    value {
      b: false
    }
  }
}
node {
  name: "InputSpectralFrame/input_producer/input_producer_Close_1"
  op: "QueueCloseV2"
  input: "InputSpectralFrame/input_producer"
  attr {
    key: "cancel_pending_enqueues"
    value {
      b: true
    }
  }
}
node {
  name: "InputSpectralFrame/input_producer/input_producer_Size"
  op: "QueueSizeV2"
  input: "InputSpectralFrame/input_producer"
  attr {
    key: "_output_shapes"
    value {
      list {
        shape {
        }
      }
    }
  }
}
node {
  name: "InputSpectralFrame/input_producer/Cast"
  op: "Cast"
  input: "InputSpectralFrame/input_producer/input_producer_Size"
  attr {
    key: "DstT"
    value {
      type: DT_FLOAT
    }
  }
  attr {
    key: "SrcT"
    value {
      type: DT_INT32
    }
  }
  attr {
    key: "Truncate"
    value {
      b: false
    }
  }
  attr {
    key: "_output_shapes"
    value {
      list {
        shape {
        }
      }
    }
  }
}
node {
  name: "InputSpectralFrame/input_producer/mul/y"
  op: "Const"
  attr {
    key: "_output_shapes"
    value {
      list {
        shape {
        }
      }
    }
  }
  attr {
    key: "dtype"
    value {
      type: DT_FLOAT
    }
  }
  attr {
    key: "value"
    value {
      tensor {
        dtype: DT_FLOAT
        tensor_shape {
        }
        float_val: 0.03125
      }
    }
  }
}
node {
  name: "InputSpectralFrame/input_producer/mul"
  op: "Mul"
  input: "InputSpectralFrame/input_producer/Cast"
  input: "InputSpectralFrame/input_producer/mul/y"
  attr {
    key: "T"
    value {
      type: DT_FLOAT
    }
  }
  attr {
    key: "_output_shapes"
    value {
      list {
        shape {
        }
      }
    }
  }
}
node {
  name: "InputSpectralFrame/input_producer/fraction_of_32_full/tags"
  op: "Const"
  attr {
    key: "_output_shapes"
    value {
      list {
        shape {
        }
      }
    }
  }
  attr {
    key: "dtype"
    value {
      type: DT_STRING
    }
  }
  attr {
    key: "value"
    value {
      tensor {
        dtype: DT_STRING
        tensor_shape {
        }
        string_val: "InputSpectralFrame/input_producer/fraction_of_32_full"
      }
    }
  }
}
node {
  name: "InputSpectralFrame/input_producer/fraction_of_32_full"
  op: "ScalarSummary"
  input: "InputSpectralFrame/input_producer/fraction_of_32_full/tags"
  input: "InputSpectralFrame/input_producer/mul"
  attr {
    key: "T"
    value {
      type: DT_FLOAT
    }
  }
  attr {
    key: "_output_shapes"
    value {
      list {
        shape {
        }
      }
    }
  }
}
node {
  name: "InputSpectralFrame/FixedLengthRecordReaderV2"
  op: "FixedLengthRecordReaderV2"
  attr {
    key: "_output_shapes"
    value {
      list {
        shape {
        }
      }
    }
  }
  attr {
    key: "container"
    value {
      s: ""
    }
  }
  attr {
    key: "encoding"
    value {
      s: ""
    }
  }
  attr {
    key: "footer_bytes"
    value {
      i: 0
    }
  }
  attr {
    key: "header_bytes"
    value {
      i: 0
    }
  }
  attr {
    key: "hop_bytes"
    value {
      i: 0
    }
  }
  attr {
    key: "record_bytes"
    value {
      i: 4116
    }
  }
  attr {
    key: "shared_name"
    value {
      s: ""
    }
  }
}
node {
  name: "InputSpectralFrame/ReaderReadV2"
  op: "ReaderReadV2"
  input: "InputSpectralFrame/FixedLengthRecordReaderV2"
  input: "InputSpectralFrame/input_producer"
  attr {
    key: "_output_shapes"
    value {
      list {
        shape {
        }
        shape {
        }
      }
    }
  }
}
node {
  name: "InputSpectralFrame/DecodeRaw"
  op: "DecodeRaw"
  input: "InputSpectralFrame/ReaderReadV2:1"
  attr {
    key: "_output_shapes"
    value {
      list {
        shape {
          dim {
            size: -1
          }
        }
      }
    }
  }
  attr {
    key: "little_endian"
    value {
      b: true
    }
  }
  attr {
    key: "out_type"
    value {
      type: DT_FLOAT
    }
  }
}
node {
  name: "InputSpectralFrame/Reshape/shape"
  op: "Const"
  attr {
    key: "_output_shapes"
    value {
      list {
        shape {
          dim {
            size: 1
          }
        }
      }
    }
  }
  attr {
    key: "dtype"
    value {
      type: DT_INT32
    }
  }
  attr {
    key: "value"
    value {
      tensor {
        dtype: DT_INT32
        tensor_shape {
          dim {
            size: 1
          }
        }
        int_val: 1029
      }
    }
  }
}
node {
  name: "InputSpectralFrame/Reshape"
  op: "Reshape"
  input: "InputSpectralFrame/DecodeRaw"
  input: "InputSpectralFrame/Reshape/shape"
  attr {
    key: "T"
    value {
      type: DT_FLOAT
    }
  }
  attr {
    key: "Tshape"
    value {
      type: DT_INT32
    }
  }
  attr {
    key: "_output_shapes"
    value {
      list {
        shape {
          dim {
            size: 1029
          }
        }
      }
    }
  }
}
node {
  name: "InputSpectralFrame/strided_slice/stack"
  op: "Const"
  attr {
    key: "_output_shapes"
    value {
      list {
        shape {
          dim {
            size: 1
          }
        }
      }
    }
  }
  attr {
    key: "dtype"
    value {
      type: DT_INT32
    }
  }
  attr {
    key: "value"
    value {
      tensor {
        dtype: DT_INT32
        tensor_shape {
          dim {
            size: 1
          }
        }
        int_val: 0
      }
    }
  }
}
node {
  name: "InputSpectralFrame/strided_slice/stack_1"
  op: "Const"
  attr {
    key: "_output_shapes"
    value {
      list {
        shape {
          dim {
            size: 1
          }
        }
      }
    }
  }
  attr {
    key: "dtype"
    value {
      type: DT_INT32
    }
  }
  attr {
    key: "value"
    value {
      tensor {
        dtype: DT_INT32
        tensor_shape {
          dim {
            size: 1
          }
        }
        int_val: 513
      }
    }
  }
}
node {
  name: "InputSpectralFrame/strided_slice/stack_2"
  op: "Const"
  attr {
    key: "_output_shapes"
    value {
      list {
        shape {
          dim {
            size: 1
          }
        }
      }
    }
  }
  attr {
    key: "dtype"
    value {
      type: DT_INT32
    }
  }
  attr {
    key: "value"
    value {
      tensor {
        dtype: DT_INT32
        tensor_shape {
          dim {
            size: 1
          }
        }
        int_val: 1
      }
    }
  }
}
node {
  name: "InputSpectralFrame/strided_slice"
  op: "StridedSlice"
  input: "InputSpectralFrame/Reshape"
  input: "InputSpectralFrame/strided_slice/stack"
  input: "InputSpectralFrame/strided_slice/stack_1"
  input: "InputSpectralFrame/strided_slice/stack_2"
  attr {
    key: "Index"
    value {
      type: DT_INT32
    }
  }
  attr {
    key: "T"
    value {
      type: DT_FLOAT
    }
  }
  attr {
    key: "_output_shapes"
    value {
      list {
        shape {
          dim {
            size: 513
          }
        }
      }
    }
  }
  attr {
    key: "begin_mask"
    value {
      i: 1
    }
  }
  attr {
    key: "ellipsis_mask"
    value {
      i: 0
    }
  }
  attr {
    key: "end_mask"
    value {
      i: 0
    }
  }
  attr {
    key: "new_axis_mask"
    value {
      i: 0
    }
  }
  attr {
    key: "shrink_axis_mask"
    value {
      i: 0
    }
  }
}
node {
  name: "InputSpectralFrame/sub/y"
  op: "Const"
  attr {
    key: "_output_shapes"
    value {
      list {
        shape {
          dim {
            size: 513
          }
        }
      }
    }
  }
  attr {
    key: "dtype"
    value {
      type: DT_FLOAT
    }
  }
  attr {
    key: "value"
    value {
      tensor {
        dtype: DT_FLOAT
        tensor_shape {
          dim {
            size: 513
          }
        }
        tensor_content: "…"
      }
    }
  }
}
node {
  name: "InputSpectralFrame/sub"
  op: "Sub"
  input: "InputSpectralFrame/strided_slice"
  input: "InputSpectralFrame/sub/y"
  attr {
    key: "T"
    value {
      type: DT_FLOAT
    }
  }
  attr {
    key: "_output_shapes"
    value {
      list {
        shape {
          dim {
            size: 513
          }
        }
      }
    }
  }
}
node {
  name: "InputSpectralFrame/truediv/y"
  op: "Const"
  attr {
    key: "_output_shapes"
    value {
      list {
        shape {
          dim {
            size: 513
          }
        }
      }
    }
  }
  attr {
    key: "dtype"
    value {
      type: DT_FLOAT
    }
  }
  attr {
    key: "value"
    value {
      tensor {
        dtype: DT_FLOAT
        tensor_shape {
          dim {
            size: 513
          }
        }
        tensor_content: "…"
      }
    }
  }
}
node {
  name: "InputSpectralFrame/truediv"
  op: "RealDiv"
  input: "InputSpectralFrame/sub"
  input: "InputSpectralFrame/truediv/y"
  attr {
    key: "T"
    value {
      type: DT_FLOAT
    }
  }
  attr {
    key: "_output_shapes"
    value {
      list {
        shape {
          dim {
            size: 513
          }
        }
      }
    }
  }
}
node {
  name: "InputSpectralFrame/clip_by_value/Minimum/y"
  op: "Const"
  attr {
    key: "_output_shapes"
    value {
      list {
        shape {
        }
      }
    }
  }
  attr {
    key: "dtype"
    value {
      type: DT_FLOAT
    }
  }
  attr {
    key: "value"
    value {
      tensor {
        dtype: DT_FLOAT
        tensor_shape {
        }
        float_val: 1.0
      }
    }
  }
}
node {
  name: "InputSpectralFrame/clip_by_value/Minimum"
  op: "Minimum"
  input: "InputSpectralFrame/truediv"
  input: "InputSpectralFrame/clip_by_value/Minimum/y"
  attr {
    key: "T"
    value {
      type: DT_FLOAT
    }
  }
  attr {
    key: "_output_shapes"
    value {
      list {
        shape {
          dim {
            size: 513
          }
        }
      }
    }
  }
}
node {
  name: "InputSpectralFrame/clip_by_value/y"
  op: "Const"
  attr {
    key: "_output_shapes"
    value {
      list {
        shape {
        }
      }
    }
  }
  attr {
    key: "dtype"
    value {
      type: DT_FLOAT
    }
  }
  attr {
    key: "value"
    value {
      tensor {
        dtype: DT_FLOAT
        tensor_shape {
        }
        float_val: 0.0
      }
    }
  }
}
node {
  name: "InputSpectralFrame/clip_by_value"
  op: "Maximum"
  input: "InputSpectralFrame/clip_by_value/Minimum"
  input: "InputSpectralFrame/clip_by_value/y"
  attr {
    key: "T"
    value {
      type: DT_FLOAT
    }
  }
  attr {
    key: "_output_shapes"
    value {
      list {
        shape {
          dim {
            size: 513
          }
        }
      }
    }
  }
}
node {
  name: "InputSpectralFrame/mul/y"
  op: "Const"
  attr {
    key: "_output_shapes"
    value {
      list {
        shape {
        }
      }
    }
  }
  attr {
    key: "dtype"
    value {
      type: DT_FLOAT
    }
  }
  attr {
    key: "value"
    value {
      tensor {
        dtype: DT_FLOAT
        tensor_shape {
        }
        float_val: 2.0
      }
    }
  }
}
node {
  name: "InputSpectralFrame/mul"
  op: "Mul"
  input: "InputSpectralFrame/clip_by_value"
  input: "InputSpectralFrame/mul/y"
  attr {
    key: "T"
    value {
      type: DT_FLOAT
    }
  }
  attr {
    key: "_output_shapes"
    value {
      list {
        shape {
          dim {
            size: 513
          }
        }
      }
    }
  }
}
node {
  name: "InputSpectralFrame/sub_1/y"
  op: "Const"
  attr {
    key: "_output_shapes"
    value {
      list {
        shape {
        }
      }
    }
  }
  attr {
    key: "dtype"
    value {
      type: DT_FLOAT
    }
  }
  attr {
    key: "value"
    value {
      tensor {
        dtype: DT_FLOAT
        tensor_shape {
        }
        float_val: 1.0
      }
    }
  }
}
node {
  name: "InputSpectralFrame/sub_1"
  op: "Sub"
  input: "InputSpectralFrame/mul"
  input: "InputSpectralFrame/sub_1/y"
  attr {
    key: "T"
    value {
      type: DT_FLOAT
    }
  }
  attr {
    key: "_output_shapes"
    value {
      list {
        shape {
          dim {
            size: 513
          }
        }
      }
    }
  }
}
node {
  name: "InputSpectralFrame/Reshape_1/shape"
  op: "Const"
  attr {
    key: "_output_shapes"
    value {
      list {
        shape {
          dim {
            size: 3
          }
        }
      }
    }
  }
  attr {
    key: "dtype"
    value {
      type: DT_INT32
    }
  }
  attr {
    key: "value"
    value {
      tensor {
        dtype: DT_INT32
        tensor_shape {
          dim {
            size: 3
          }
        }
        tensor_content: "\001\000\000\000\001\002\000\000\001\000\000\000"
      }
    }
  }
}
node {
  name: "InputSpectralFrame/Reshape_1"
  op: "Reshape"
  input: "InputSpectralFrame/sub_1"
  input: "InputSpectralFrame/Reshape_1/shape"
  attr {
    key: "T"
    value {
      type: DT_FLOAT
    }
  }
  attr {
    key: "Tshape"
    value {
      type: DT_INT32
    }
  }
  attr {
    key: "_output_shapes"
    value {
      list {
        shape {
          dim {
            size: 1
          }
          dim {
            size: 513
          }
          dim {
            size: 1
          }
        }
      }
    }
  }
}
node {
  name: "InputSpectralFrame/strided_slice_1/stack"
  op: "Const"
  attr {
    key: "_output_shapes"
    value {
      list {
        shape {
          dim {
            size: 1
          }
        }
      }
    }
  }
  attr {
    key: "dtype"
    value {
      type: DT_INT32
    }
  }
  attr {
    key: "value"
    value {
      tensor {
        dtype: DT_INT32
        tensor_shape {
          dim {
            size: 1
          }
        }
        int_val: -1
      }
    }
  }
}
node {
  name: "InputSpectralFrame/strided_slice_1/stack_1"
  op: "Const"
  attr {
    key: "_output_shapes"
    value {
      list {
        shape {
          dim {
            size: 1
          }
        }
      }
    }
  }
  attr {
    key: "dtype"
    value {
      type: DT_INT32
    }
  }
  attr {
    key: "value"
    value {
      tensor {
        dtype: DT_INT32
        tensor_shape {
          dim {
            size: 1
          }
        }
        int_val: 0
      }
    }
  }
}
node {
  name: "InputSpectralFrame/strided_slice_1/stack_2"
  op: "Const"
  attr {
    key: "_output_shapes"
    value {
      list {
        shape {
          dim {
            size: 1
          }
        }
      }
    }
  }
  attr {
    key: "dtype"
    value {
      type: DT_INT32
    }
  }
  attr {
    key: "value"
    value {
      tensor {
        dtype: DT_INT32
        tensor_shape {
          dim {
            size: 1
          }
        }
        int_val: 1
      }
    }
  }
}
node {
  name: "InputSpectralFrame/strided_slice_1"
  op: "StridedSlice"
  input: "InputSpectralFrame/Reshape"
  input: "InputSpectralFrame/strided_slice_1/stack"
  input: "InputSpectralFrame/strided_slice_1/stack_1"
  input: "InputSpectralFrame/strided_slice_1/stack_2"
  attr {
    key: "Index"
    value {
      type: DT_INT32
    }
  }
  attr {
    key: "T"
    value {
      type: DT_FLOAT
    }
  }
  attr {
    key: "_output_shapes"
    value {
      list {
        shape {
        }
      }
    }
  }
  attr {
    key: "begin_mask"
    value {
      i: 0
    }
  }
  attr {
    key: "ellipsis_mask"
    value {
      i: 0
    }
  }
  attr {
    key: "end_mask"
    value {
      i: 0
    }
  }
  attr {
    key: "new_axis_mask"
    value {
      i: 0
    }
  }
  attr {
    key: "shrink_axis_mask"
    value {
      i: 1
    }
  }
}
node {
  name: "InputSpectralFrame/Cast"
  op: "Cast"
  input: "InputSpectralFrame/strided_slice_1"
  attr {
    key: "DstT"
    value {
      type: DT_INT64
    }
  }
  attr {
    key: "SrcT"
    value {
      type: DT_FLOAT
    }
  }
  attr {
    key: "Truncate"
    value {
      b: false
    }
  }
  attr {
    key: "_output_shapes"
    value {
      list {
        shape {
        }
      }
    }
  }
}
node {
  name: "InputSpectralFrame/shuffle_batch/Const"
  op: "Const"
  attr {
    key: "_output_shapes"
    value {
      list {
        shape {
        }
      }
    }
  }
  attr {
    key: "dtype"
    value {
      type: DT_BOOL
    }
  }
  attr {
    key: "value"
    value {
      tensor {
        dtype: DT_BOOL
        tensor_shape {
        }
        bool_val: true
      }
    }
  }
}
node {
  name: "InputSpectralFrame/shuffle_batch/random_shuffle_queue"
  op: "RandomShuffleQueueV2"
  attr {
    key: "_output_shapes"
    value {
      list {
        shape {
        }
      }
    }
  }
  attr {
    key: "capacity"
    value {
      i: 2048
    }
  }
  attr {
    key: "component_types"
    value {
      list {
        type: DT_FLOAT
        type: DT_INT64
      }
    }
  }
  attr {
    key: "container"
    value {
      s: ""
    }
  }
  attr {
    key: "min_after_dequeue"
    value {
      i: 1024
    }
  }
  attr {
    key: "seed"
    value {
      i: 0
    }
  }
  attr {
    key: "seed2"
    value {
      i: 0
    }
  }
  attr {
    key: "shapes"
    value {
      list {
        shape {
          dim {
            size: 1
          }
          dim {
            size: 513
          }
          dim {
            size: 1
          }
        }
        shape {
        }
      }
    }
  }
  attr {
    key: "shared_name"
    value {
      s: ""
    }
  }
}
node {
  name: "InputSpectralFrame/shuffle_batch/random_shuffle_queue_enqueue"
  op: "QueueEnqueueV2"
  input: "InputSpectralFrame/shuffle_batch/random_shuffle_queue"
  input: "InputSpectralFrame/Reshape_1"
  input: "InputSpectralFrame/Cast"
  attr {
    key: "Tcomponents"
    value {
      list {
        type: DT_FLOAT
        type: DT_INT64
      }
    }
  }
  attr {
    key: "timeout_ms"
    value {
      i: -1
    }
  }
}
node {
  name: "InputSpectralFrame/shuffle_batch/random_shuffle_queue_Close"
  op: "QueueCloseV2"
  input: "InputSpectralFrame/shuffle_batch/random_shuffle_queue"
  attr {
    key: "cancel_pending_enqueues"
    value {
      b: false
    }
  }
}
node {
  name: "InputSpectralFrame/shuffle_batch/random_shuffle_queue_Close_1"
  op: "QueueCloseV2"
  input: "InputSpectralFrame/shuffle_batch/random_shuffle_queue"
  attr {
    key: "cancel_pending_enqueues"
    value {
      b: true
    }
  }
}
node {
  name: "InputSpectralFrame/shuffle_batch/random_shuffle_queue_Size"
  op: "QueueSizeV2"
  input: "InputSpectralFrame/shuffle_batch/random_shuffle_queue"
  attr {
    key: "_output_shapes"
    value {
      list {
        shape {
        }
      }
    }
  }
}
node {
  name: "InputSpectralFrame/shuffle_batch/sub/y"
  op: "Const"
  attr {
    key: "_output_shapes"
    value {
      list {
        shape {
        }
      }
    }
  }
  attr {
    key: "dtype"
    value {
      type: DT_INT32
    }
  }
  attr {
    key: "value"
    value {
      tensor {
        dtype: DT_INT32
        tensor_shape {
        }
        int_val: 1024
      }
    }
  }
}
node {
  name: "InputSpectralFrame/shuffle_batch/sub"
  op: "Sub"
  input: "InputSpectralFrame/shuffle_batch/random_shuffle_queue_Size"
  input: "InputSpectralFrame/shuffle_batch/sub/y"
  attr {
    key: "T"
    value {
      type: DT_INT32
    }
  }
  attr {
    key: "_output_shapes"
    value {
      list {
        shape {
        }
      }
    }
  }
}
node {
  name: "InputSpectralFrame/shuffle_batch/Maximum/x"
  op: "Const"
  attr {
    key: "_output_shapes"
    value {
      list {
        shape {
        }
      }
    }
  }
  attr {
    key: "dtype"
    value {
      type: DT_INT32
    }
  }
  attr {
    key: "value"
    value {
      tensor {
        dtype: DT_INT32
        tensor_shape {
        }
        int_val: 0
      }
    }
  }
}
node {
  name: "InputSpectralFrame/shuffle_batch/Maximum"
  op: "Maximum"
  input: "InputSpectralFrame/shuffle_batch/Maximum/x"
  input: "InputSpectralFrame/shuffle_batch/sub"
  attr {
    key: "T"
    value {
      type: DT_INT32
    }
  }
  attr {
    key: "_output_shapes"
    value {
      list {
        shape {
        }
      }
    }
  }
}
node {
  name: "InputSpectralFrame/shuffle_batch/Cast"
  op: "Cast"
  input: "InputSpectralFrame/shuffle_batch/Maximum"
  attr {
    key: "DstT"
    value {
      type: DT_FLOAT
    }
  }
  attr {
    key: "SrcT"
    value {
      type: DT_INT32
    }
  }
  attr {
    key: "Truncate"
    value {
      b: false
    }
  }
  attr {
    key: "_output_shapes"
    value {
      list {
        shape {
        }
      }
    }
  }
}
node {
  name: "InputSpectralFrame/shuffle_batch/mul/y"
  op: "Const"
  attr {
    key: "_output_shapes"
    value {
      list {
        shape {
        }
      }
    }
  }
  attr {
    key: "dtype"
    value {
      type: DT_FLOAT
    }
  }
  attr {
    key: "value"
    value {
      tensor {
        dtype: DT_FLOAT
        tensor_shape {
        }
        float_val: 0.0009765625
      }
    }
  }
}
node {
  name: "InputSpectralFrame/shuffle_batch/mul"
  op: "Mul"
  input: "InputSpectralFrame/shuffle_batch/Cast"
  input: "InputSpectralFrame/shuffle_batch/mul/y"
  attr {
    key: "T"
    value {
      type: DT_FLOAT
    }
  }
  attr {
    key: "_output_shapes"
    value {
      list {
        shape {
        }
      }
    }
  }
}
node {
  name: "InputSpectralFrame/shuffle_batch/fraction_over_1024_of_1024_full/tags"
  op: "Const"
  attr {
    key: "_output_shapes"
    value {
      list {
        shape {
        }
      }
    }
  }
  attr {
    key: "dtype"
    value {
      type: DT_STRING
    }
  }
  attr {
    key: "value"
    value {
      tensor {
        dtype: DT_STRING
        tensor_shape {
        }
        string_val: "InputSpectralFrame/shuffle_batch/fraction_over_1024_of_1024_full"
      }
    }
  }
}
node {
  name: "InputSpectralFrame/shuffle_batch/fraction_over_1024_of_1024_full"
  op: "ScalarSummary"
  input: "InputSpectralFrame/shuffle_batch/fraction_over_1024_of_1024_full/tags"
  input: "InputSpectralFrame/shuffle_batch/mul"
  attr {
    key: "T"
    value {
      type: DT_FLOAT
    }
  }
  attr {
    key: "_output_shapes"
    value {
      list {
        shape {
        }
      }
    }
  }
}
node {
  name: "InputSpectralFrame/shuffle_batch/n"
  op: "Const"
  attr {
    key: "_output_shapes"
    value {
      list {
        shape {
        }
      }
    }
  }
  attr {
    key: "dtype"
    value {
      type: DT_INT32
    }
  }
  attr {
    key: "value"
    value {
      tensor {
        dtype: DT_INT32
        tensor_shape {
        }
        int_val: 16
      }
    }
  }
}
node {
  name: "InputSpectralFrame/shuffle_batch"
  op: "QueueDequeueManyV2"
  input: "InputSpectralFrame/shuffle_batch/random_shuffle_queue"
  input: "InputSpectralFrame/shuffle_batch/n"
  attr {
    key: "_output_shapes"
    value {
      list {
        shape {
          dim {
            size: 16
          }
          dim {
            size: 1
          }
          dim {
            size: 513
          }
          dim {
            size: 1
          }
        }
        shape {
          dim {
            size: 16
          }
        }
      }
    }
  }
  attr {
    key: "component_types"
    value {
      list {
        type: DT_FLOAT
        type: DT_INT64
      }
    }
  }
  attr {
    key: "timeout_ms"
    value {
      i: -1
    }
  }
}
node {
  name: "y_embedding/y_emb/Initializer/random_uniform/shape"
  op: "Const"
  attr {
    key: "_class"
    value {
      list {
        s: "loc:@y_embedding/y_emb"
      }
    }
  }
  attr {
    key: "_output_shapes"
    value {
      list {
        shape {
          dim {
            size: 2
          }
        }
      }
    }
  }
  attr {
    key: "dtype"
    value {
      type: DT_INT32
    }
  }
  attr {
    key: "value"
    value {
      tensor {
        dtype: DT_INT32
        tensor_shape {
          dim {
            size: 2
          }
        }
        tensor_content: "\n\000\000\000\200\000\000\000"
      }
    }
  }
}
node {
  name: "y_embedding/y_emb/Initializer/random_uniform/min"
  op: "Const"
  attr {
    key: "_class"
    value {
      list {
        s: "loc:@y_embedding/y_emb"
      }
    }
  }
  attr {
    key: "_output_shapes"
    value {
      list {
        shape {
        }
      }
    }
  }
  attr {
    key: "dtype"
    value {
      type: DT_FLOAT
    }
  }
  attr {
    key: "value"
    value {
      tensor {
        dtype: DT_FLOAT
        tensor_shape {
        }
        float_val: -0.20851440727710724
      }
    }
  }
}
node {
  name: "y_embedding/y_emb/Initializer/random_uniform/max"
  op: "Const"
  attr {
    key: "_class"
    value {
      list {
        s: "loc:@y_embedding/y_emb"
      }
    }
  }
  attr {
    key: "_output_shapes"
    value {
      list {
        shape {
        }
      }
    }
  }
  attr {
    key: "dtype"
    value {
      type: DT_FLOAT
    }
  }
  attr {
    key: "value"
    value {
      tensor {
        dtype: DT_FLOAT
        tensor_shape {
        }
        float_val: 0.20851440727710724
      }
    }
  }
}
node {
  name: "y_embedding/y_emb/Initializer/random_uniform/RandomUniform"
  op: "RandomUniform"
  input: "y_embedding/y_emb/Initializer/random_uniform/shape"
  attr {
    key: "T"
    value {
      type: DT_INT32
    }
  }
  attr {
    key: "_class"
    value {
      list {
        s: "loc:@y_embedding/y_emb"
      }
    }
  }
  attr {
    key: "_output_shapes"
    value {
      list {
        shape {
          dim {
            size: 10
          }
          dim {
            size: 128
          }
        }
      }
    }
  }
  attr {
    key: "dtype"
    value {
      type: DT_FLOAT
    }
  }
  attr {
    key: "seed"
    value {
      i: 0
    }
  }
  attr {
    key: "seed2"
    value {
      i: 0
    }
  }
}
node {
  name: "y_embedding/y_emb/Initializer/random_uniform/sub"
  op: "Sub"
  input: "y_embedding/y_emb/Initializer/random_uniform/max"
  input: "y_embedding/y_emb/Initializer/random_uniform/min"
  attr {
    key: "T"
    value {
      type: DT_FLOAT
    }
  }
  attr {
    key: "_class"
    value {
      list {
        s: "loc:@y_embedding/y_emb"
      }
    }
  }
  attr {
    key: "_output_shapes"
    value {
      list {
        shape {
        }
      }
    }
  }
}
node {
  name: "y_embedding/y_emb/Initializer/random_uniform/mul"
  op: "Mul"
  input: "y_embedding/y_emb/Initializer/random_uniform/RandomUniform"
  input: "y_embedding/y_emb/Initializer/random_uniform/sub"
  attr {
    key: "T"
    value {
      type: DT_FLOAT
    }
  }
  attr {
    key: "_class"
    value {
      list {
        s: "loc:@y_embedding/y_emb"
      }
    }
  }
  attr {
    key: "_output_shapes"
    value {
      list {
        shape {
          dim {
            size: 10
          }
          dim {
            size: 128
          }
        }
      }
    }
  }
}
node {
  name: "y_embedding/y_emb/Initializer/random_uniform"
  op: "AddV2"
  input: "y_embedding/y_emb/Initializer/random_uniform/mul"
  input: "y_embedding/y_emb/Initializer/random_uniform/min"
  attr {
    key: "T"
    value {
      type: DT_FLOAT
    }
  }
  attr {
    key: "_class"
    value {
      list {
        s: "loc:@y_embedding/y_emb"
      }
    }
  }
  attr {
    key: "_output_shapes"
    value {
      list {
        shape {
          dim {
            size: 10
          }
          dim {
            size: 128
          }
        }
      }
    }
  }
}
node {
  name: "y_embedding/y_emb"
  op: "VariableV2"
  attr {
    key: "_class"
    value {
      list {
        s: "loc:@y_embedding/y_emb"
      }
    }
  }
  attr {
    key: "_output_shapes"
    value {
      list {
        shape {
          dim {
            size: 10
          }
          dim {
            size: 128
          }
        }
      }
    }
  }
  attr {
    key: "container"
    value {
      s: ""
    }
  }
  attr {
    key: "dtype"
    value {
      type: DT_FLOAT
    }
  }
  attr {
    key: "shape"
    value {
      shape {
        dim {
          size: 10
        }
        dim {
          size: 128
        }
      }
    }
  }
  attr {
    key: "shared_name"
    value {
      s: ""
    }
  }
}
node {
  name: "y_embedding/y_emb/Assign"
  op: "Assign"
  input: "y_embedding/y_emb"
  input: "y_embedding/y_emb/Initializer/random_uniform"
  attr {
    key: "T"
    value {
      type: DT_FLOAT
    }
  }
  attr {
    key: "_class"
    value {
      list {
        s: "loc:@y_embedding/y_emb"
      }
    }
  }
  attr {
    key: "_has_manual_control_dependencies"
    value {
      b: true
    }
  }
  attr {
    key: "_output_shapes"
    value {
      list {
        shape {
          dim {
            size: 10
          }
          dim {
            size: 128
          }
        }
      }
    }
  }
  attr {
    key: "use_locking"
    value {
      b: true
    }
  }
  attr {
    key: "validate_shape"
    value {
      b: true
    }
  }
}
node {
  name: "y_embedding/y_emb/read"
  op: "Identity"
  input: "y_embedding/y_emb"
  attr {
    key: "T"
    value {
      type: DT_FLOAT
    }
  }
  attr {
    key: "_class"
    value {
      list {
        s: "loc:@y_embedding/y_emb"
      }
    }
  }
  attr {
    key: "_output_shapes"
    value {
      list {
        shape {
          dim {
            size: 10
          }
          dim {
            size: 128
          }
        }
      }
    }
  }
}
node {
  name: "l2_regularizer/scale"
  op: "Const"
  attr {
    key: "_output_shapes"
    value {
      list {
        shape {
        }
      }
    }
  }
  attr {
    key: "dtype"
    value {
      type: DT_FLOAT
    }
  }
  attr {
    key: "value"
    value {
      tensor {
        dtype: DT_FLOAT
        tensor_shape {
        }
        float_val: 9.999999974752427e-07
      }
    }
  }
}
node {
  name: "l2_regularizer/L2Loss"
  op: "L2Loss"
  input: "y_embedding/y_emb/read"
  attr {
    key: "T"
    value {
      type: DT_FLOAT
    }
  }
  attr {
    key: "_output_shapes"
    value {
      list {
        shape {
        }
      }
    }
  }
}
node {
  name: "l2_regularizer"
  op: "Mul"
  input: "l2_regularizer/scale"
  input: "l2_regularizer/L2Loss"
  attr {
    key: "T"
    value {
      type: DT_FLOAT
    }
  }
  attr {
    key: "_output_shapes"
    value {
      list {
        shape {
        }
      }
    }
  }
}
node {
  name: "y_embedding/y_emb/Regularizer/l2_regularizer/scale"
  op: "Const"
  attr {
    key: "_class"
    value {
      list {
        s: "loc:@y_embedding/y_emb"
      }
    }
  }
  attr {
    key: "_output_shapes"
    value {
      list {
        shape {
        }
      }
    }
  }
  attr {
    key: "dtype"
    value {
      type: DT_FLOAT
    }
  }
  attr {
    key: "value"
    value {
      tensor {
        dtype: DT_FLOAT
        tensor_shape {
        }
        float_val: 9.999999974752427e-07
      }
    }
  }
}
node {
  name: "y_embedding/y_emb/Regularizer/l2_regularizer/L2Loss"
  op: "L2Loss"
  input: "y_embedding/y_emb/read"
  attr {
    key: "T"
    value {
      type: DT_FLOAT
    }
  }
  attr {
    key: "_class"
    value {
      list {
        s: "loc:@y_embedding/y_emb"
      }
    }
  }
  attr {
    key: "_output_shapes"
    value {
      list {
        shape {
        }
      }
    }
  }
}
node {
  name: "y_embedding/y_emb/Regularizer/l2_regularizer"
  op: "Mul"
  input: "y_embedding/y_emb/Regularizer/l2_regularizer/scale"
  input: "y_embedding/y_emb/Regularizer/l2_regularizer/L2Loss"
  attr {
    key: "T"
    value {
      type: DT_FLOAT
    }
  }
  attr {
    key: "_class"
    value {
      list {
        s: "loc:@y_embedding/y_emb"
      }
    }
  }
  attr {
    key: "_output_shapes"
    value {
      list {
        shape {
        }
      }
    }
  }
}
node {
  name: "Encoder/Conv2d-0/Conv2d-0/kernel/Initializer/random_uniform/shape"
  op: "Const"
  attr {
    key: "_class"
    value {
      list {
        s: "loc:@Encoder/Conv2d-0/Conv2d-0/kernel"
      }
    }
  }
  attr {
    key: "_output_shapes"
    value {
      list {
        shape {
          dim {
            size: 4
          }
        }
      }
    }
  }
  attr {
    key: "dtype"
    value {
      type: DT_INT32
    }
  }
  attr {
    key: "value"
    value {
      tensor {
        dtype: DT_INT32
        tensor_shape {
          dim {
            size: 4
          }
        }
        tensor_content: "\007\000\000\000\001\000\000\000\001\000\000\000\020\000\000\000"
      }
    }
  }
}
node {
  name: "Encoder/Conv2d-0/Conv2d-0/kernel/Initializer/random_uniform/min"
  op: "Const"
  attr {
    key: "_class"
    value {
      list {
        s: "loc:@Encoder/Conv2d-0/Conv2d-0/kernel"
      }
    }
  }
  attr {
    key: "_output_shapes"
    value {
      list {
        shape {
        }
      }
    }
  }
  attr {
    key: "dtype"
    value {
      type: DT_FLOAT
    }
  }
  attr {
    key: "value"
    value {
      tensor {
        dtype: DT_FLOAT
        tensor_shape {
        }
        float_val: -0.22454436123371124
      }
    }
  }
}
node {
  name: "Encoder/Conv2d-0/Conv2d-0/kernel/Initializer/random_uniform/max"
  op: "Const"
  attr {
    key: "_class"
    value {
      list {
        s: "loc:@Encoder/Conv2d-0/Conv2d-0/kernel"
      }
    }
  }
  attr {
    key: "_output_shapes"
    value {
      list {
        shape {
        }
      }
    }
  }
  attr {
    key: "dtype"
    value {
      type: DT_FLOAT
    }
  }
  attr {
    key: "value"
    value {
      tensor {
        dtype: DT_FLOAT
        tensor_shape {
        }
        float_val: 0.22454436123371124
      }
    }
  }
}
node {
  name: "Encoder/Conv2d-0/Conv2d-0/kernel/Initializer/random_uniform/RandomUniform"
  op: "RandomUniform"
  input: "Encoder/Conv2d-0/Conv2d-0/kernel/Initializer/random_uniform/shape"
  attr {
    key: "T"
    value {
      type: DT_INT32
    }
  }
  attr {
    key: "_class"
    value {
      list {
        s: "loc:@Encoder/Conv2d-0/Conv2d-0/kernel"
      }
    }
  }
  attr {
    key: "_output_shapes"
    value {
      list {
        shape {
          dim {
            size: 7
          }
          dim {
            size: 1
          }
          dim {
            size: 1
          }
          dim {
            size: 16
          }
        }
      }
    }
  }
  attr {
    key: "dtype"
    value {
      type: DT_FLOAT
    }
  }
  attr {
    key: "seed"
    value {
      i: 0
    }
  }
  attr {
    key: "seed2"
    value {
      i: 0
    }
  }
}
node {
  name: "Encoder/Conv2d-0/Conv2d-0/kernel/Initializer/random_uniform/sub"
  op: "Sub"
  input: "Encoder/Conv2d-0/Conv2d-0/kernel/Initializer/random_uniform/max"
  input: "Encoder/Conv2d-0/Conv2d-0/kernel/Initializer/random_uniform/min"
  attr {
    key: "T"
    value {
      type: DT_FLOAT
    }
  }
  attr {
    key: "_class"
    value {
      list {
        s: "loc:@Encoder/Conv2d-0/Conv2d-0/kernel"
      }
    }
  }
  attr {
    key: "_output_shapes"
    value {
      list {
        shape {
        }
      }
    }
  }
}
node {
  name: "Encoder/Conv2d-0/Conv2d-0/kernel/Initializer/random_uniform/mul"
  op: "Mul"
  input: "Encoder/Conv2d-0/Conv2d-0/kernel/Initializer/random_uniform/RandomUniform"
  input: "Encoder/Conv2d-0/Conv2d-0/kernel/Initializer/random_uniform/sub"
  attr {
    key: "T"
    value {
      type: DT_FLOAT
    }
  }
  attr {
    key: "_class"
    value {
      list {
        s: "loc:@Encoder/Conv2d-0/Conv2d-0/kernel"
      }
    }
  }
  attr {
    key: "_output_shapes"
    value {
      list {
        shape {
          dim {
            size: 7
          }
          dim {
            size: 1
          }
          dim {
            size: 1
          }
          dim {
            size: 16
          }
        }
      }
    }
  }
}
node {
  name: "Encoder/Conv2d-0/Conv2d-0/kernel/Initializer/random_uniform"
  op: "AddV2"
  input: "Encoder/Conv2d-0/Conv2d-0/kernel/Initializer/random_uniform/mul"
  input: "Encoder/Conv2d-0/Conv2d-0/kernel/Initializer/random_uniform/min"
  attr {
    key: "T"
    value {
      type: DT_FLOAT
    }
  }
  attr {
    key: "_class"
    value {
      list {
        s: "loc:@Encoder/Conv2d-0/Conv2d-0/kernel"
      }
    }
  }
  attr {
    key: "_output_shapes"
    value {
      list {
        shape {
          dim {
            size: 7
          }
          dim {
            size: 1
          }
          dim {
            size: 1
          }
          dim {
            size: 16
          }
        }
      }
    }
  }
}
node {
  name: "Encoder/Conv2d-0/Conv2d-0/kernel"
  op: "VariableV2"
  attr {
    key: "_class"
    value {
      list {
        s: "loc:@Encoder/Conv2d-0/Conv2d-0/kernel"
      }
    }
  }
  attr {
    key: "_output_shapes"
    value {
      list {
        shape {
          dim {
            size: 7
          }
          dim {
            size: 1
          }
          dim {
            size: 1
          }
          dim {
            size: 16
          }
        }
      }
    }
  }
  attr {
    key: "container"
    value {
      s: ""
    }
  }
  attr {
    key: "dtype"
    value {
      type: DT_FLOAT
    }
  }
  attr {
    key: "shape"
    value {
      shape {
        dim {
          size: 7
        }
        dim {
          size: 1
        }
        dim {
          size: 1
        }
        dim {
          size: 16
        }
      }
    }
  }
  attr {
    key: "shared_name"
    value {
      s: ""
    }
  }
}
node {
  name: "Encoder/Conv2d-0/Conv2d-0/kernel/Assign"
  op: "Assign"
  input: "Encoder/Conv2d-0/Conv2d-0/kernel"
  input: "Encoder/Conv2d-0/Conv2d-0/kernel/Initializer/random_uniform"
  attr {
    key: "T"
    value {
      type: DT_FLOAT
    }
  }
  attr {
    key: "_class"
    value {
      list {
        s: "loc:@Encoder/Conv2d-0/Conv2d-0/kernel"
      }
    }
  }
  attr {
    key: "_has_manual_control_dependencies"
    value {
      b: true
    }
  }
  attr {
    key: "_output_shapes"
    value {
      list {
        shape {
          dim {
            size: 7
          }
          dim {
            size: 1
          }
          dim {
            size: 1
          }
          dim {
            size: 16
          }
        }
      }
    }
  }
  attr {
    key: "use_locking"
    value {
      b: true
    }
  }
  attr {
    key: "validate_shape"
    value {
      b: true
    }
  }
}
node {
  name: "Encoder/Conv2d-0/Conv2d-0/kernel/read"
  op: "Identity"
  input: "Encoder/Conv2d-0/Conv2d-0/kernel"
  attr {
    key: "T"
    value {
      type: DT_FLOAT
    }
  }
  attr {
    key: "_class"
    value {
      list {
        s: "loc:@Encoder/Conv2d-0/Conv2d-0/kernel"
      }
    }
  }
  attr {
    key: "_output_shapes"
    value {
      list {
        shape {
          dim {
            size: 7
          }
          dim {
            size: 1
          }
          dim {
            size: 1
          }
          dim {
            size: 16
          }
        }
      }
    }
  }
}
node {
  name: "Encoder/Conv2d-0/Conv2d-0/bias/Initializer/zeros"
  op: "Const"
  attr {
    key: "_class"
    value {
      list {
        s: "loc:@Encoder/Conv2d-0/Conv2d-0/bias"
      }
    }
  }
  attr {
    key: "_output_shapes"
    value {
      list {
        shape {
          dim {
            size: 16
          }
        }
      }
    }
  }
  attr {
    key: "dtype"
    value {
      type: DT_FLOAT
    }
  }
  attr {
    key: "value"
    value {
      tensor {
        dtype: DT_FLOAT
        tensor_shape {
          dim {
            size: 16
          }
        }
        float_val: 0.0
      }
    }
  }
}
node {
  name: "Encoder/Conv2d-0/Conv2d-0/bias"
  op: "VariableV2"
  attr {
    key: "_class"
    value {
      list {
        s: "loc:@Encoder/Conv2d-0/Conv2d-0/bias"
      }
    }
  }
  attr {
…
      b: true
    }
  }
}
node {
  name: "save/Assign_74"
  op: "Assign"
  input: "Generator/BiasAdd/biases/Adam_1"
  input: "save/RestoreV2:74"
  attr {
    key: "T"
    value {
      type: DT_FLOAT
    }
  }
  attr {
    key: "_class"
    value {
      list {
        s: "loc:@Generator/BiasAdd/biases"
      }
    }
  }
  attr {
    key: "_has_manual_control_dependencies"
    value {
      b: true
    }
  }
  attr {
    key: "_output_shapes"
    value {
      list {
        shape {
          dim {
            size: 1539
          }
        }
      }
    }
  }
  attr {
    key: "use_locking"
    value {
      b: true
    }
  }
  attr {
    key: "validate_shape"
    value {
      b: true
    }
  }
}
node {
  name: "save/Assign_75"
  op: "Assign"
  input: "Generator/ConvT-LN0.offset"
  input: "save/RestoreV2:75"
  attr {
    key: "T"
    value {
      type: DT_FLOAT
    }
  }
  attr {
    key: "_class"
    value {
      list {
        s: "loc:@Generator/ConvT-LN0.offset"
      }
    }
  }
  attr {
    key: "_has_manual_control_dependencies"
    value {
      b: true
    }
  }
  attr {
    key: "_output_shapes"
    value {
      list {
        shape {
          dim {
            size: 32
          }
          dim {
            size: 1
          }
          dim {
            size: 1
          }
        }
      }
    }
  }
  attr {
    key: "use_locking"
    value {
      b: true
    }
  }
  attr {
    key: "validate_shape"
    value {
      b: true
    }
  }
}
node {
  name: "save/Assign_76"
  op: "Assign"
  input: "Generator/ConvT-LN0.offset/Adam"
  input: "save/RestoreV2:76"
  attr {
    key: "T"
    value {
      type: DT_FLOAT
    }
  }
  attr {
    key: "_class"
    value {
      list {
        s: "loc:@Generator/ConvT-LN0.offset"
      }
    }
  }
  attr {
    key: "_has_manual_control_dependencies"
    value {
      b: true
    }
  }
  attr {
    key: "_output_shapes"
    value {
      list {
        shape {
          dim {
            size: 32
          }
          dim {
            size: 1
          }
          dim {
            size: 1
          }
        }
      }
    }
  }
  attr {
    key: "use_locking"
    value {
      b: true
    }
  }
  attr {
    key: "validate_shape"
    value {
      b: true
    }
  }
}
node {
  name: "save/Assign_77"
  op: "Assign"
  input: "Generator/ConvT-LN0.offset/Adam_1"
  input: "save/RestoreV2:77"
  attr {
    key: "T"
    value {
      type: DT_FLOAT
    }
  }
  attr {
    key: "_class"
    value {
      list {
        s: "loc:@Generator/ConvT-LN0.offset"
      }
    }
  }
  attr {
    key: "_has_manual_control_dependencies"
    value {
      b: true
    }
  }
  attr {
    key: "_output_shapes"
    value {
      list {
        shape {
          dim {
            size: 32
          }
          dim {
            size: 1
          }
          dim {
            size: 1
          }
        }
      }
    }
  }
  attr {
    key: "use_locking"
    value {
      b: true
    }
  }
  attr {
    key: "validate_shape"
    value {
      b: true
    }
  }
}
node {
  name: "save/Assign_78"
  op: "Assign"
  input: "Generator/ConvT-LN0.scale"
  input: "save/RestoreV2:78"
  attr {
    key: "T"
    value {
      type: DT_FLOAT
    }
  }
  attr {
    key: "_class"
    value {
      list {
        s: "loc:@Generator/ConvT-LN0.scale"
      }
    }
  }
  attr {
    key: "_has_manual_control_dependencies"
    value {
      b: true
    }
  }
  attr {
    key: "_output_shapes"
    value {
      list {
        shape {
          dim {
            size: 32
          }
          dim {
            size: 1
          }
          dim {
            size: 1
          }
        }
      }
    }
  }
  attr {
    key: "use_locking"
    value {
      b: true
    }
  }
  attr {
    key: "validate_shape"
    value {
      b: true
    }
  }
}
node {
  name: "save/Assign_79"
  op: "Assign"
  input: "Generator/ConvT-LN0.scale/Adam"
  input: "save/RestoreV2:79"
  attr {
    key: "T"
    value {
      type: DT_FLOAT
    }
  }
  attr {
    key: "_class"
    value {
      list {
        s: "loc:@Generator/ConvT-LN0.scale"
      }
    }
  }
  attr {
    key: "_has_manual_control_dependencies"
    value {
      b: true
    }
  }
  attr {
    key: "_output_shapes"
    value {
      list {
        shape {
          dim {
            size: 32
          }
          dim {
            size: 1
          }
          dim {
            size: 1
          }
        }
      }
    }
  }
  attr {
    key: "use_locking"
    value {
      b: true
    }
  }
  attr {
    key: "validate_shape"
    value {
      b: true
    }
  }
}
node {
  name: "save/Assign_80"
  op: "Assign"
  input: "Generator/ConvT-LN0.scale/Adam_1"
  input: "save/RestoreV2:80"
  attr {
    key: "T"
    value {
      type: DT_FLOAT
    }
  }
  attr {
    key: "_class"
    value {
      list {
        s: "loc:@Generator/ConvT-LN0.scale"
      }
    }
  }
  attr {
    key: "_has_manual_control_dependencies"
    value {
      b: true
    }
  }
  attr {
    key: "_output_shapes"
    value {
      list {
        shape {
          dim {
            size: 32
          }
          dim {
            size: 1
          }
          dim {
            size: 1
          }
        }
      }
    }
  }
  attr {
    key: "use_locking"
    value {
      b: true
    }
  }
  attr {
    key: "validate_shape"
    value {
      b: true
    }
  }
}
node {
  name: "save/Assign_81"
  op: "Assign"
  input: "Generator/ConvT-LN1.offset"
  input: "save/RestoreV2:81"
  attr {
    key: "T"
    value {
      type: DT_FLOAT
    }
  }
  attr {
    key: "_class"
    value {
      list {
        s: "loc:@Generator/ConvT-LN1.offset"
      }
    }
  }
  attr {
    key: "_has_manual_control_dependencies"
    value {
      b: true
    }
  }
  attr {
    key: "_output_shapes"
    value {
      list {
        shape {
          dim {
            size: 16
          }
          dim {
            size: 1
          }
          dim {
            size: 1
          }
        }
      }
    }
  }
  attr {
    key: "use_locking"
    value {
      b: true
    }
  }
  attr {
    key: "validate_shape"
    value {
      b: true
    }
  }
}
node {
  name: "save/Assign_82"
  op: "Assign"
  input: "Generator/ConvT-LN1.offset/Adam"
  input: "save/RestoreV2:82"
  attr {
    key: "T"
    value {
      type: DT_FLOAT
    }
  }
  attr {
    key: "_class"
    value {
      list {
        s: "loc:@Generator/ConvT-LN1.offset"
      }
    }
  }
  attr {
    key: "_has_manual_control_dependencies"
    value {
      b: true
    }
  }
  attr {
    key: "_output_shapes"
    value {
      list {
        shape {
          dim {
            size: 16
          }
          dim {
            size: 1
          }
          dim {
            size: 1
          }
        }
      }
    }
  }
  attr {
    key: "use_locking"
    value {
      b: true
    }
  }
  attr {
    key: "validate_shape"
    value {
      b: true
    }
  }
}
node {
  name: "save/Assign_83"
  op: "Assign"
  input: "Generator/ConvT-LN1.offset/Adam_1"
  input: "save/RestoreV2:83"
  attr {
    key: "T"
    value {
      type: DT_FLOAT
    }
  }
  attr {
    key: "_class"
    value {
      list {
        s: "loc:@Generator/ConvT-LN1.offset"
      }
    }
  }
  attr {
    key: "_has_manual_control_dependencies"
    value {
      b: true
    }
  }
  attr {
    key: "_output_shapes"
    value {
      list {
        shape {
          dim {
            size: 16
          }
          dim {
            size: 1
          }
          dim {
            size: 1
          }
        }
      }
    }
  }
  attr {
    key: "use_locking"
    value {
      b: true
    }
  }
  attr {
    key: "validate_shape"
    value {
      b: true
    }
  }
}
node {
  name: "save/Assign_84"
  op: "Assign"
  input: "Generator/ConvT-LN1.scale"
  input: "save/RestoreV2:84"
  attr {
    key: "T"
    value {
      type: DT_FLOAT
    }
  }
  attr {
    key: "_class"
    value {
      list {
        s: "loc:@Generator/ConvT-LN1.scale"
      }
    }
  }
  attr {
    key: "_has_manual_control_dependencies"
    value {
      b: true
    }
  }
  attr {
    key: "_output_shapes"
    value {
      list {
        shape {
          dim {
            size: 16
          }
          dim {
            size: 1
          }
          dim {
            size: 1
          }
        }
      }
    }
  }
  attr {
    key: "use_locking"
    value {
      b: true
    }
  }
  attr {
    key: "validate_shape"
    value {
      b: true
    }
  }
}
node {
  name: "save/Assign_85"
  op: "Assign"
  input: "Generator/ConvT-LN1.scale/Adam"
  input: "save/RestoreV2:85"
  attr {
    key: "T"
    value {
      type: DT_FLOAT
    }
  }
  attr {
    key: "_class"
    value {
      list {
        s: "loc:@Generator/ConvT-LN1.scale"
      }
    }
  }
  attr {
    key: "_has_manual_control_dependencies"
    value {
      b: true
    }
  }
  attr {
    key: "_output_shapes"
    value {
      list {
        shape {
          dim {
            size: 16
          }
          dim {
            size: 1
          }
          dim {
            size: 1
          }
        }
      }
    }
  }
  attr {
    key: "use_locking"
    value {
      b: true
    }
  }
  attr {
    key: "validate_shape"
    value {
      b: true
    }
  }
}
node {
  name: "save/Assign_86"
  op: "Assign"
  input: "Generator/ConvT-LN1.scale/Adam_1"
  input: "save/RestoreV2:86"
  attr {
    key: "T"
    value {
      type: DT_FLOAT
    }
  }
  attr {
    key: "_class"
    value {
      list {
        s: "loc:@Generator/ConvT-LN1.scale"
      }
    }
  }
  attr {
    key: "_has_manual_control_dependencies"
    value {
      b: true
    }
  }
  attr {
    key: "_output_shapes"
    value {
      list {
        shape {
          dim {
            size: 16
          }
          dim {
            size: 1
          }
          dim {
            size: 1
          }
        }
      }
    }
  }
  attr {
    key: "use_locking"
    value {
      b: true
    }
  }
  attr {
    key: "validate_shape"
    value {
      b: true
    }
  }
}
node {
  name: "save/Assign_87"
  op: "Assign"
  input: "Generator/ConvT-LN2.offset"
  input: "save/RestoreV2:87"
  attr {
    key: "T"
    value {
      type: DT_FLOAT
    }
  }
  attr {
    key: "_class"
    value {
      list {
        s: "loc:@Generator/ConvT-LN2.offset"
      }
    }
  }
  attr {
    key: "_has_manual_control_dependencies"
    value {
      b: true
    }
  }
  attr {
    key: "_output_shapes"
    value {
      list {
        shape {
          dim {
            size: 8
          }
          dim {
            size: 1
          }
          dim {
            size: 1
          }
        }
      }
    }
  }
  attr {
    key: "use_locking"
    value {
      b: true
    }
  }
  attr {
    key: "validate_shape"
    value {
      b: true
    }
  }
}
node {
  name: "save/Assign_88"
  op: "Assign"
  input: "Generator/ConvT-LN2.offset/Adam"
  input: "save/RestoreV2:88"
  attr {
    key: "T"
    value {
      type: DT_FLOAT
    }
  }
  attr {
    key: "_class"
    value {
      list {
        s: "loc:@Generator/ConvT-LN2.offset"
      }
    }
  }
  attr {
    key: "_has_manual_control_dependencies"
    value {
      b: true
    }
  }
  attr {
    key: "_output_shapes"
    value {
      list {
        shape {
          dim {
            size: 8
          }
          dim {
            size: 1
          }
          dim {
            size: 1
          }
        }
      }
    }
  }
  attr {
    key: "use_locking"
    value {
      b: true
    }
  }
  attr {
    key: "validate_shape"
    value {
      b: true
    }
  }
}
node {
  name: "save/Assign_89"
  op: "Assign"
  input: "Generator/ConvT-LN2.offset/Adam_1"
  input: "save/RestoreV2:89"
  attr {
    key: "T"
    value {
      type: DT_FLOAT
    }
  }
  attr {
    key: "_class"
    value {
      list {
        s: "loc:@Generator/ConvT-LN2.offset"
      }
    }
  }
  attr {
    key: "_has_manual_control_dependencies"
    value {
      b: true
    }
  }
  attr {
    key: "_output_shapes"
    value {
      list {
        shape {
          dim {
            size: 8
          }
          dim {
            size: 1
          }
          dim {
            size: 1
          }
        }
      }
    }
  }
  attr {
    key: "use_locking"
    value {
      b: true
    }
  }
  attr {
    key: "validate_shape"
    value {
      b: true
    }
  }
}
node {
  name: "save/Assign_90"
  op: "Assign"
  input: "Generator/ConvT-LN2.scale"
  input: "save/RestoreV2:90"
  attr {
    key: "T"
    value {
      type: DT_FLOAT
    }
  }
  attr {
    key: "_class"
    value {
      list {
        s: "loc:@Generator/ConvT-LN2.scale"
      }
    }
  }
  attr {
    key: "_has_manual_control_dependencies"
    value {
      b: true
    }
  }
  attr {
    key: "_output_shapes"
    value {
      list {
        shape {
          dim {
            size: 8
          }
          dim {
            size: 1
          }
          dim {
            size: 1
          }
        }
      }
    }
  }
  attr {
    key: "use_locking"
    value {
      b: true
    }
  }
  attr {
    key: "validate_shape"
    value {
      b: true
    }
  }
}
node {
  name: "save/Assign_91"
  op: "Assign"
  input: "Generator/ConvT-LN2.scale/Adam"
  input: "save/RestoreV2:91"
  attr {
    key: "T"
    value {
      type: DT_FLOAT
    }
  }
  attr {
    key: "_class"
    value {
      list {
        s: "loc:@Generator/ConvT-LN2.scale"
      }
    }
  }
  attr {
    key: "_has_manual_control_dependencies"
    value {
      b: true
    }
  }
  attr {
    key: "_output_shapes"
    value {
      list {
        shape {
          dim {
            size: 8
          }
          dim {
            size: 1
          }
          dim {
            size: 1
          }
        }
      }
    }
  }
  attr {
    key: "use_locking"
    value {
      b: true
    }
  }
  attr {
    key: "validate_shape"
    value {
      b: true
    }
  }
}
node {
  name: "save/Assign_92"
  op: "Assign"
  input: "Generator/ConvT-LN2.scale/Adam_1"
  input: "save/RestoreV2:92"
  attr {
    key: "T"
    value {
      type: DT_FLOAT
    }
  }
  attr {
    key: "_class"
    value {
      list {
        s: "loc:@Generator/ConvT-LN2.scale"
      }
    }
  }
  attr {
    key: "_has_manual_control_dependencies"
    value {
      b: true
    }
  }
  attr {
    key: "_output_shapes"
    value {
      list {
        shape {
          dim {
            size: 8
          }
          dim {
            size: 1
          }
          dim {
            size: 1
          }
        }
      }
    }
  }
  attr {
    key: "use_locking"
    value {
      b: true
    }
  }
  attr {
    key: "validate_shape"
    value {
      b: true
    }
  }
}
node {
  name: "save/Assign_93"
  op: "Assign"
  input: "Generator/conv2d_transpose/bias"
  input: "save/RestoreV2:93"
  attr {
    key: "T"
    value {
      type: DT_FLOAT
    }
  }
  attr {
    key: "_class"
    value {
      list {
        s: "loc:@Generator/conv2d_transpose/bias"
      }
    }
  }
  attr {
    key: "_has_manual_control_dependencies"
    value {
      b: true
    }
  }
  attr {
    key: "_output_shapes"
    value {
      list {
        shape {
          dim {
            size: 32
          }
        }
      }
    }
  }
  attr {
    key: "use_locking"
    value {
      b: true
    }
  }
  attr {
    key: "validate_shape"
    value {
      b: true
    }
  }
}
node {
  name: "save/Assign_94"
  op: "Assign"
  input: "Generator/conv2d_transpose/bias/Adam"
  input: "save/RestoreV2:94"
  attr {
    key: "T"
    value {
      type: DT_FLOAT
    }
  }
  attr {
    key: "_class"
    value {
      list {
        s: "loc:@Generator/conv2d_transpose/bias"
      }
    }
  }
  attr {
    key: "_has_manual_control_dependencies"
    value {
      b: true
    }
  }
  attr {
    key: "_output_shapes"
    value {
      list {
        shape {
          dim {
            size: 32
          }
        }
      }
    }
  }
  attr {
    key: "use_locking"
    value {
      b: true
    }
  }
  attr {
    key: "validate_shape"
    value {
      b: true
    }
  }
}
node {
  name: "save/Assign_95"
  op: "Assign"
  input: "Generator/conv2d_transpose/bias/Adam_1"
  input: "save/RestoreV2:95"
  attr {
    key: "T"
    value {
      type: DT_FLOAT
    }
  }
  attr {
    key: "_class"
    value {
      list {
        s: "loc:@Generator/conv2d_transpose/bias"
      }
    }
  }
  attr {
    key: "_has_manual_control_dependencies"
    value {
      b: true
    }
  }
  attr {
    key: "_output_shapes"
    value {
      list {
        shape {
          dim {
            size: 32
          }
        }
      }
    }
  }
  attr {
    key: "use_locking"
    value {
      b: true
    }
  }
  attr {
    key: "validate_shape"
    value {
      b: true
    }
  }
}
node {
  name: "save/Assign_96"
  op: "Assign"
  input: "Generator/conv2d_transpose/kernel"
  input: "save/RestoreV2:96"
  attr {
    key: "T"
    value {
      type: DT_FLOAT
    }
  }
  attr {
    key: "_class"
    value {
      list {
        s: "loc:@Generator/conv2d_transpose/kernel"
      }
    }
  }
  attr {
    key: "_has_manual_control_dependencies"
    value {
      b: true
    }
  }
  attr {
    key: "_output_shapes"
    value {
      list {
        shape {
          dim {
            size: 9
          }
          dim {
            size: 1
          }
          dim {
            size: 32
          }
          dim {
            size: 81
          }
        }
      }
    }
  }
  attr {
    key: "use_locking"
    value {
      b: true
    }
  }
  attr {
    key: "validate_shape"
    value {
      b: true
    }
  }
}
node {
  name: "save/Assign_97"
  op: "Assign"
  input: "Generator/conv2d_transpose/kernel/Adam"
  input: "save/RestoreV2:97"
  attr {
    key: "T"
    value {
      type: DT_FLOAT
    }
  }
  attr {
    key: "_class"
    value {
      list {
        s: "loc:@Generator/conv2d_transpose/kernel"
      }
    }
  }
  attr {
    key: "_has_manual_control_dependencies"
    value {
      b: true
    }
  }
  attr {
    key: "_output_shapes"
    value {
      list {
        shape {
          dim {
            size: 9
          }
          dim {
            size: 1
          }
          dim {
            size: 32
          }
          dim {
            size: 81
          }
        }
      }
    }
  }
  attr {
    key: "use_locking"
    value {
      b: true
    }
  }
  attr {
    key: "validate_shape"
    value {
      b: true
    }
  }
}
node {
  name: "save/Assign_98"
  op: "Assign"
  input: "Generator/conv2d_transpose/kernel/Adam_1"
  input: "save/RestoreV2:98"
  attr {
    key: "T"
    value {
      type: DT_FLOAT
    }
  }
  attr {
    key: "_class"
    value {
      list {
        s: "loc:@Generator/conv2d_transpose/kernel"
      }
    }
  }
  attr {
    key: "_has_manual_control_dependencies"
    value {
      b: true
    }
  }
  attr {
    key: "_output_shapes"
    value {
      list {
        shape {
          dim {
            size: 9
          }
          dim {
            size: 1
          }
          dim {
            size: 32
          }
          dim {
            size: 81
          }
        }
      }
    }
  }
  attr {
    key: "use_locking"
    value {
      b: true
    }
  }
  attr {
    key: "validate_shape"
    value {
      b: true
    }
  }
}
node {
  name: "save/Assign_99"
  op: "Assign"
  input: "Generator/conv2d_transpose_1/bias"
  input: "save/RestoreV2:99"
  attr {
    key: "T"
    value {
      type: DT_FLOAT
    }
  }
  attr {
    key: "_class"
    value {
      list {
        s: "loc:@Generator/conv2d_transpose_1/bias"
      }
    }
  }
  attr {
    key: "_has_manual_control_dependencies"
    value {
      b: true
    }
  }
  attr {
    key: "_output_shapes"
    value {
      list {
        shape {
          dim {
            size: 16
          }
        }
      }
    }
  }
  attr {
    key: "use_locking"
    value {
      b: true
    }
  }
  attr {
    key: "validate_shape"
    value {
      b: true
    }
  }
}
node {
  name: "save/Assign_100"
  op: "Assign"
  input: "Generator/conv2d_transpose_1/bias/Adam"
  input: "save/RestoreV2:100"
  attr {
    key: "T"
    value {
      type: DT_FLOAT
    }
  }
  attr {
    key: "_class"
    value {
      list {
        s: "loc:@Generator/conv2d_transpose_1/bias"
      }
    }
  }
  attr {
    key: "_has_manual_control_dependencies"
    value {
      b: true
    }
  }
  attr {
    key: "_output_shapes"
    value {
      list {
        shape {
          dim {
            size: 16
          }
        }
      }
    }
  }
  attr {
    key: "use_locking"
    value {
      b: true
    }
  }
  attr {
    key: "validate_shape"
    value {
      b: true
    }
  }
}
node {
  name: "save/Assign_101"
  op: "Assign"
  input: "Generator/conv2d_transpose_1/bias/Adam_1"
  input: "save/RestoreV2:101"
  attr {
    key: "T"
    value {
      type: DT_FLOAT
    }
  }
  attr {
    key: "_class"
    value {
      list {
        s: "loc:@Generator/conv2d_transpose_1/bias"
      }
    }
  }
  attr {
    key: "_has_manual_control_dependencies"
    value {
      b: true
    }
  }
  attr {
    key: "_output_shapes"
    value {
      list {
        shape {
          dim {
            size: 16
          }
        }
      }
    }
  }
  attr {
    key: "use_locking"
    value {
      b: true
    }
  }
  attr {
    key: "validate_shape"
    value {
      b: true
    }
  }
}
node {
  name: "save/Assign_102"
  op: "Assign"
  input: "Generator/conv2d_transpose_1/kernel"
  input: "save/RestoreV2:102"
  attr {
    key: "T"
    value {
      type: DT_FLOAT
    }
  }
  attr {
    key: "_class"
    value {
      list {
        s: "loc:@Generator/conv2d_transpose_1/kernel"
      }
    }
  }
  attr {
    key: "_has_manual_control_dependencies"
    value {
      b: true
    }
  }
  attr {
    key: "_output_shapes"
    value {
      list {
        shape {
          dim {
            size: 7
          }
          dim {
            size: 1
          }
          dim {
            size: 16
          }
          dim {
            size: 32
          }
        }
      }
    }
  }
  attr {
    key: "use_locking"
    value {
      b: true
    }
  }
  attr {
    key: "validate_shape"
    value {
      b: true
    }
  }
}
node {
  name: "save/Assign_103"
  op: "Assign"
  input: "Generator/conv2d_transpose_1/kernel/Adam"
  input: "save/RestoreV2:103"
  attr {
    key: "T"
    value {
      type: DT_FLOAT
    }
  }
  attr {
    key: "_class"
    value {
      list {
        s: "loc:@Generator/conv2d_transpose_1/kernel"
      }
    }
  }
  attr {
    key: "_has_manual_control_dependencies"
    value {
      b: true
    }
  }
  attr {
    key: "_output_shapes"
    value {
      list {
        shape {
          dim {
            size: 7
          }
          dim {
            size: 1
          }
          dim {
            size: 16
          }
          dim {
            size: 32
          }
        }
      }
    }
  }
  attr {
    key: "use_locking"
    value {
      b: true
    }
  }
  attr {
    key: "validate_shape"
    value {
      b: true
    }
  }
}
node {
  name: "save/Assign_104"
  op: "Assign"
  input: "Generator/conv2d_transpose_1/kernel/Adam_1"
  input: "save/RestoreV2:104"
  attr {
    key: "T"
    value {
      type: DT_FLOAT
    }
  }
  attr {
    key: "_class"
    value {
      list {
        s: "loc:@Generator/conv2d_transpose_1/kernel"
      }
    }
  }
  attr {
    key: "_has_manual_control_dependencies"
    value {
      b: true
    }
  }
  attr {
    key: "_output_shapes"
    value {
      list {
        shape {
          dim {
            size: 7
          }
          dim {
            size: 1
          }
          dim {
            size: 16
          }
          dim {
            size: 32
          }
        }
      }
    }
  }
  attr {
    key: "use_locking"
    value {
      b: true
    }
  }
  attr {
    key: "validate_shape"
    value {
      b: true
    }
  }
}
node {
  name: "save/Assign_105"
  op: "Assign"
  input: "Generator/conv2d_transpose_2/bias"
  input: "save/RestoreV2:105"
  attr {
    key: "T"
    value {
      type: DT_FLOAT
    }
  }
  attr {
    key: "_class"
    value {
      list {
        s: "loc:@Generator/conv2d_transpose_2/bias"
      }
    }
  }
  attr {
    key: "_has_manual_control_dependencies"
    value {
      b: true
    }
  }
  attr {
    key: "_output_shapes"
    value {
      list {
        shape {
          dim {
            size: 8
          }
        }
      }
    }
  }
  attr {
    key: "use_locking"
    value {
      b: true
    }
  }
  attr {
    key: "validate_shape"
    value {
      b: true
    }
  }
}
node {
  name: "save/Assign_106"
  op: "Assign"
  input: "Generator/conv2d_transpose_2/bias/Adam"
  input: "save/RestoreV2:106"
  attr {
    key: "T"
    value {
      type: DT_FLOAT
    }
  }
  attr {
    key: "_class"
    value {
      list {
        s: "loc:@Generator/conv2d_transpose_2/bias"
      }
    }
  }
  attr {
    key: "_has_manual_control_dependencies"
    value {
      b: true
    }
  }
  attr {
    key: "_output_shapes"
    value {
      list {
        shape {
          dim {
            size: 8
          }
        }
      }
    }
  }
  attr {
    key: "use_locking"
    value {
      b: true
    }
  }
  attr {
    key: "validate_shape"
    value {
      b: true
    }
  }
}
node {
  name: "save/Assign_107"
  op: "Assign"
  input: "Generator/conv2d_transpose_2/bias/Adam_1"
  input: "save/RestoreV2:107"
  attr {
    key: "T"
    value {
      type: DT_FLOAT
    }
  }
  attr {
    key: "_class"
    value {
      list {
        s: "loc:@Generator/conv2d_transpose_2/bias"
      }
    }
  }
  attr {
    key: "_has_manual_control_dependencies"
    value {
      b: true
    }
  }
  attr {
    key: "_output_shapes"
    value {
      list {
        shape {
          dim {
            size: 8
          }
        }
      }
    }
  }
  attr {
    key: "use_locking"
    value {
      b: true
    }
  }
  attr {
    key: "validate_shape"
    value {
      b: true
    }
  }
}
node {
  name: "save/Assign_108"
  op: "Assign"
  input: "Generator/conv2d_transpose_2/kernel"
  input: "save/RestoreV2:108"
  attr {
    key: "T"
    value {
      type: DT_FLOAT
    }
  }
  attr {
    key: "_class"
    value {
      list {
        s: "loc:@Generator/conv2d_transpose_2/kernel"
      }
    }
  }
  attr {
    key: "_has_manual_control_dependencies"
    value {
      b: true
    }
  }
  attr {
    key: "_output_shapes"
    value {
      list {
        shape {
          dim {
            size: 7
          }
          dim {
            size: 1
          }
          dim {
            size: 8
          }
          dim {
            size: 16
          }
        }
      }
    }
  }
  attr {
    key: "use_locking"
    value {
      b: true
    }
  }
  attr {
    key: "validate_shape"
    value {
      b: true
    }
  }
}
node {
  name: "save/Assign_109"
  op: "Assign"
  input: "Generator/conv2d_transpose_2/kernel/Adam"
  input: "save/RestoreV2:109"
  attr {
    key: "T"
    value {
      type: DT_FLOAT
    }
  }
  attr {
    key: "_class"
    value {
      list {
        s: "loc:@Generator/conv2d_transpose_2/kernel"
      }
    }
  }
  attr {
    key: "_has_manual_control_dependencies"
    value {
      b: true
    }
  }
  attr {
    key: "_output_shapes"
    value {
      list {
        shape {
          dim {
            size: 7
          }
          dim {
            size: 1
          }
          dim {
            size: 8
          }
          dim {
            size: 16
          }
        }
      }
    }
  }
  attr {
    key: "use_locking"
    value {
      b: true
    }
  }
  attr {
    key: "validate_shape"
    value {
      b: true
    }
  }
}
node {
  name: "save/Assign_110"
  op: "Assign"
  input: "Generator/conv2d_transpose_2/kernel/Adam_1"
  input: "save/RestoreV2:110"
  attr {
    key: "T"
    value {
      type: DT_FLOAT
    }
  }
  attr {
    key: "_class"
    value {
      list {
        s: "loc:@Generator/conv2d_transpose_2/kernel"
      }
    }
  }
  attr {
    key: "_has_manual_control_dependencies"
    value {
      b: true
    }
  }
  attr {
    key: "_output_shapes"
    value {
      list {
        shape {
          dim {
            size: 7
          }
          dim {
            size: 1
          }
          dim {
            size: 8
          }
          dim {
            size: 16
          }
        }
      }
    }
  }
  attr {
    key: "use_locking"
    value {
      b: true
    }
  }
  attr {
    key: "validate_shape"
    value {
      b: true
    }
  }
}
node {
  name: "save/Assign_111"
  op: "Assign"
  input: "Generator/conv2d_transpose_3/bias"
  input: "save/RestoreV2:111"
  attr {
    key: "T"
    value {
      type: DT_FLOAT
    }
  }
  attr {
    key: "_class"
    value {
      list {
        s: "loc:@Generator/conv2d_transpose_3/bias"
      }
    }
  }
  attr {
    key: "_has_manual_control_dependencies"
    value {
      b: true
    }
  }
  attr {
    key: "_output_shapes"
    value {
      list {
        shape {
          dim {
            size: 1
          }
        }
      }
    }
  }
  attr {
    key: "use_locking"
    value {
      b: true
    }
  }
  attr {
    key: "validate_shape"
    value {
      b: true
    }
  }
}
node {
  name: "save/Assign_112"
  op: "Assign"
  input: "Generator/conv2d_transpose_3/bias/Adam"
  input: "save/RestoreV2:112"
  attr {
    key: "T"
    value {
      type: DT_FLOAT
    }
  }
  attr {
    key: "_class"
    value {
      list {
        s: "loc:@Generator/conv2d_transpose_3/bias"
      }
    }
  }
  attr {
    key: "_has_manual_control_dependencies"
    value {
      b: true
    }
  }
  attr {
    key: "_output_shapes"
    value {
      list {
        shape {
          dim {
            size: 1
          }
        }
      }
    }
  }
  attr {
    key: "use_locking"
    value {
      b: true
    }
  }
  attr {
    key: "validate_shape"
    value {
      b: true
    }
  }
}
node {
  name: "save/Assign_113"
  op: "Assign"
  input: "Generator/conv2d_transpose_3/bias/Adam_1"
  input: "save/RestoreV2:113"
  attr {
    key: "T"
    value {
      type: DT_FLOAT
    }
  }
  attr {
    key: "_class"
    value {
      list {
        s: "loc:@Generator/conv2d_transpose_3/bias"
      }
    }
  }
  attr {
    key: "_has_manual_control_dependencies"
    value {
      b: true
    }
  }
  attr {
    key: "_output_shapes"
    value {
      list {
        shape {
          dim {
            size: 1
          }
        }
      }
    }
  }
  attr {
    key: "use_locking"
    value {
      b: true
    }
  }
  attr {
    key: "validate_shape"
    value {
      b: true
    }
  }
}
node {
  name: "save/Assign_114"
  op: "Assign"
  input: "Generator/conv2d_transpose_3/kernel"
  input: "save/RestoreV2:114"
  attr {
    key: "T"
    value {
      type: DT_FLOAT
    }
  }
  attr {
    key: "_class"
    value {
      list {
        s: "loc:@Generator/conv2d_transpose_3/kernel"
      }
    }
  }
  attr {
    key: "_has_manual_control_dependencies"
    value {
      b: true
    }
  }
  attr {
    key: "_output_shapes"
    value {
      list {
        shape {
          dim {
            size: 1025
          }
          dim {
            size: 1
          }
          dim {
            size: 1
          }
          dim {
            size: 8
          }
        }
      }
    }
  }
  attr {
    key: "use_locking"
    value {
      b: true
    }
  }
  attr {
    key: "validate_shape"
    value {
      b: true
    }
  }
}
node {
  name: "save/Assign_115"
  op: "Assign"
  input: "Generator/conv2d_transpose_3/kernel/Adam"
  input: "save/RestoreV2:115"
  attr {
    key: "T"
    value {
      type: DT_FLOAT
    }
  }
  attr {
    key: "_class"
    value {
      list {
        s: "loc:@Generator/conv2d_transpose_3/kernel"
      }
    }
  }
  attr {
    key: "_has_manual_control_dependencies"
    value {
      b: true
    }
  }
  attr {
    key: "_output_shapes"
    value {
      list {
        shape {
          dim {
            size: 1025
          }
          dim {
            size: 1
          }
          dim {
            size: 1
          }
          dim {
            size: 8
          }
        }
      }
    }
  }
  attr {
    key: "use_locking"
    value {
      b: true
    }
  }
  attr {
    key: "validate_shape"
    value {
      b: true
    }
  }
}
node {
  name: "save/Assign_116"
  op: "Assign"
  input: "Generator/conv2d_transpose_3/kernel/Adam_1"
  input: "save/RestoreV2:116"
  attr {
    key: "T"
    value {
      type: DT_FLOAT
    }
  }
  attr {
    key: "_class"
    value {
      list {
        s: "loc:@Generator/conv2d_transpose_3/kernel"
      }
    }
  }
  attr {
    key: "_has_manual_control_dependencies"
    value {
      b: true
    }
  }
  attr {
    key: "_output_shapes"
    value {
      list {
        shape {
          dim {
            size: 1025
          }
          dim {
            size: 1
          }
          dim {
            size: 1
          }
          dim {
            size: 8
          }
        }
      }
    }
  }
  attr {
    key: "use_locking"
    value {
      b: true
    }
  }
  attr {
    key: "validate_shape"
    value {
      b: true
    }
  }
}
node {
  name: "save/Assign_117"
  op: "Assign"
  input: "Generator/fully_connected/biases"
  input: "save/RestoreV2:117"
  attr {
    key: "T"
    value {
      type: DT_FLOAT
    }
  }
  attr {
    key: "_class"
    value {
      list {
        s: "loc:@Generator/fully_connected/biases"
      }
    }
  }
  attr {
    key: "_has_manual_control_dependencies"
    value {
      b: true
    }
  }
  attr {
    key: "_output_shapes"
    value {
      list {
        shape {
          dim {
            size: 1539
          }
        }
      }
    }
  }
  attr {
    key: "use_locking"
    value {
      b: true
    }
  }
  attr {
    key: "validate_shape"
    value {
      b: true
    }
  }
}
node {
  name: "save/Assign_118"
  op: "Assign"
  input: "Generator/fully_connected/biases/Adam"
  input: "save/RestoreV2:118"
  attr {
    key: "T"
    value {
      type: DT_FLOAT
    }
  }
  attr {
    key: "_class"
    value {
      list {
        s: "loc:@Generator/fully_connected/biases"
      }
    }
  }
  attr {
    key: "_has_manual_control_dependencies"
    value {
      b: true
    }
  }
  attr {
    key: "_output_shapes"
    value {
      list {
        shape {
          dim {
            size: 1539
          }
        }
      }
    }
  }
  attr {
    key: "use_locking"
    value {
      b: true
    }
  }
  attr {
    key: "validate_shape"
    value {
      b: true
    }
  }
}
node {
  name: "save/Assign_119"
  op: "Assign"
  input: "Generator/fully_connected/biases/Adam_1"
  input: "save/RestoreV2:119"
  attr {
    key: "T"
    value {
      type: DT_FLOAT
    }
  }
  attr {
    key: "_class"
    value {
      list {
        s: "loc:@Generator/fully_connected/biases"
      }
    }
  }
  attr {
    key: "_has_manual_control_dependencies"
    value {
      b: true
    }
  }
  attr {
    key: "_output_shapes"
    value {
      list {
        shape {
          dim {
            size: 1539
          }
        }
      }
    }
  }
  attr {
    key: "use_locking"
    value {
      b: true
    }
  }
  attr {
    key: "validate_shape"
    value {
      b: true
    }
  }
}
node {
  name: "save/Assign_120"
  op: "Assign"
  input: "Generator/fully_connected/weights"
  input: "save/RestoreV2:120"
  attr {
    key: "T"
    value {
      type: DT_FLOAT
    }
  }
  attr {
    key: "_class"
    value {
      list {
        s: "loc:@Generator/fully_connected/weights"
      }
    }
  }
  attr {
    key: "_has_manual_control_dependencies"
    value {
      b: true
    }
  }
  attr {
    key: "_output_shapes"
    value {
      list {
        shape {
          dim {
            size: 128
          }
          dim {
            size: 1539
          }
        }
      }
    }
  }
  attr {
    key: "use_locking"
    value {
      b: true
    }
  }
  attr {
    key: "validate_shape"
    value {
      b: true
    }
  }
}
node {
  name: "save/Assign_121"
  op: "Assign"
  input: "Generator/fully_connected/weights/Adam"
  input: "save/RestoreV2:121"
  attr {
    key: "T"
    value {
      type: DT_FLOAT
    }
  }
  attr {
    key: "_class"
    value {
      list {
        s: "loc:@Generator/fully_connected/weights"
      }
    }
  }
  attr {
    key: "_has_manual_control_dependencies"
    value {
      b: true
    }
  }
  attr {
    key: "_output_shapes"
    value {
      list {
        shape {
          dim {
            size: 128
          }
          dim {
            size: 1539
          }
        }
      }
    }
  }
  attr {
    key: "use_locking"
    value {
      b: true
    }
  }
  attr {
    key: "validate_shape"
    value {
      b: true
    }
  }
}
node {
  name: "save/Assign_122"
  op: "Assign"
  input: "Generator/fully_connected/weights/Adam_1"
  input: "save/RestoreV2:122"
  attr {
    key: "T"
    value {
      type: DT_FLOAT
    }
  }
  attr {
    key: "_class"
    value {
      list {
        s: "loc:@Generator/fully_connected/weights"
      }
    }
  }
  attr {
    key: "_has_manual_control_dependencies"
    value {
      b: true
    }
  }
  attr {
    key: "_output_shapes"
    value {
      list {
        shape {
          dim {
            size: 128
          }
          dim {
            size: 1539
          }
        }
      }
    }
  }
  attr {
    key: "use_locking"
    value {
      b: true
    }
  }
  attr {
    key: "validate_shape"
    value {
      b: true
    }
  }
}
node {
  name: "save/Assign_123"
  op: "Assign"
  input: "Generator/fully_connected_1/biases"
  input: "save/RestoreV2:123"
  attr {
    key: "T"
    value {
      type: DT_FLOAT
    }
  }
  attr {
    key: "_class"
    value {
      list {
        s: "loc:@Generator/fully_connected_1/biases"
      }
    }
  }
  attr {
    key: "_has_manual_control_dependencies"
    value {
      b: true
    }
  }
  attr {
    key: "_output_shapes"
    value {
      list {
        shape {
          dim {
            size: 1539
          }
        }
      }
    }
  }
  attr {
    key: "use_locking"
    value {
      b: true
    }
  }
  attr {
    key: "validate_shape"
    value {
      b: true
    }
  }
}
node {
  name: "save/Assign_124"
  op: "Assign"
  input: "Generator/fully_connected_1/biases/Adam"
  input: "save/RestoreV2:124"
  attr {
    key: "T"
    value {
      type: DT_FLOAT
    }
  }
  attr {
    key: "_class"
    value {
      list {
        s: "loc:@Generator/fully_connected_1/biases"
      }
    }
  }
  attr {
    key: "_has_manual_control_dependencies"
    value {
      b: true
    }
  }
  attr {
    key: "_output_shapes"
    value {
      list {
        shape {
          dim {
            size: 1539
          }
        }
      }
    }
  }
  attr {
    key: "use_locking"
    value {
      b: true
    }
  }
  attr {
    key: "validate_shape"
    value {
      b: true
    }
  }
}
node {
  name: "save/Assign_125"
  op: "Assign"
  input: "Generator/fully_connected_1/biases/Adam_1"
  input: "save/RestoreV2:125"
  attr {
    key: "T"
    value {
      type: DT_FLOAT
    }
  }
  attr {
    key: "_class"
    value {
      list {
        s: "loc:@Generator/fully_connected_1/biases"
      }
    }
  }
  attr {
    key: "_has_manual_control_dependencies"
    value {
      b: true
    }
  }
  attr {
    key: "_output_shapes"
    value {
      list {
        shape {
          dim {
            size: 1539
          }
        }
      }
    }
  }
  attr {
    key: "use_locking"
    value {
      b: true
    }
  }
  attr {
    key: "validate_shape"
    value {
      b: true
    }
  }
}
node {
  name: "save/Assign_126"
  op: "Assign"
  input: "Generator/fully_connected_1/weights"
  input: "save/RestoreV2:126"
  attr {
    key: "T"
    value {
      type: DT_FLOAT
    }
  }
  attr {
    key: "_class"
    value {
      list {
        s: "loc:@Generator/fully_connected_1/weights"
      }
    }
  }
  attr {
    key: "_has_manual_control_dependencies"
    value {
      b: true
    }
  }
  attr {
    key: "_output_shapes"
    value {
      list {
        shape {
          dim {
            size: 128
          }
          dim {
            size: 1539
          }
        }
      }
    }
  }
  attr {
    key: "use_locking"
    value {
      b: true
    }
  }
  attr {
    key: "validate_shape"
    value {
      b: true
    }
  }
}
node {
  name: "save/Assign_127"
  op: "Assign"
  input: "Generator/fully_connected_1/weights/Adam"
  input: "save/RestoreV2:127"
  attr {
    key: "T"
    value {
      type: DT_FLOAT
    }
  }
  attr {
    key: "_class"
    value {
      list {
        s: "loc:@Generator/fully_connected_1/weights"
      }
    }
  }
  attr {
    key: "_has_manual_control_dependencies"
    value {
      b: true
    }
  }
  attr {
    key: "_output_shapes"
    value {
      list {
        shape {
          dim {
            size: 128
          }
          dim {
            size: 1539
          }
        }
      }
    }
  }
  attr {
    key: "use_locking"
    value {
      b: true
    }
  }
  attr {
    key: "validate_shape"
    value {
      b: true
    }
  }
}
node {
  name: "save/Assign_128"
  op: "Assign"
  input: "Generator/fully_connected_1/weights/Adam_1"
  input: "save/RestoreV2:128"
  attr {
    key: "T"
    value {
      type: DT_FLOAT
    }
  }
  attr {
    key: "_class"
    value {
      list {
        s: "loc:@Generator/fully_connected_1/weights"
      }
    }
  }
  attr {
    key: "_has_manual_control_dependencies"
    value {
      b: true
    }
  }
  attr {
    key: "_output_shapes"
    value {
      list {
        shape {
          dim {
            size: 128
          }
          dim {
            size: 1539
          }
        }
      }
    }
  }
  attr {
    key: "use_locking"
    value {
      b: true
    }
  }
  attr {
    key: "validate_shape"
    value {
      b: true
    }
  }
}
node {
  name: "save/Assign_129"
  op: "Assign"
  input: "Update/beta1_power"
  input: "save/RestoreV2:129"
  attr {
    key: "T"
    value {
      type: DT_FLOAT
    }
  }
  attr {
    key: "_class"
    value {
      list {
        s: "loc:@Encoder/Conv2d-0/Conv2d-0/bias"
      }
    }
  }
  attr {
    key: "_has_manual_control_dependencies"
    value {
      b: true
    }
  }
  attr {
    key: "_output_shapes"
    value {
      list {
        shape {
        }
      }
    }
  }
  attr {
    key: "use_locking"
    value {
      b: true
    }
  }
  attr {
    key: "validate_shape"
    value {
      b: true
    }
  }
}
node {
  name: "save/Assign_130"
  op: "Assign"
  input: "Update/beta2_power"
  input: "save/RestoreV2:130"
  attr {
    key: "T"
    value {
      type: DT_FLOAT
    }
  }
  attr {
    key: "_class"
    value {
      list {
        s: "loc:@Encoder/Conv2d-0/Conv2d-0/bias"
      }
    }
  }
  attr {
    key: "_has_manual_control_dependencies"
    value {
      b: true
    }
  }
  attr {
    key: "_output_shapes"
    value {
      list {
        shape {
        }
      }
    }
  }
  attr {
    key: "use_locking"
    value {
      b: true
    }
  }
  attr {
    key: "validate_shape"
    value {
      b: true
    }
  }
}
node {
  name: "save/Assign_131"
  op: "Assign"
  input: "global_step"
  input: "save/RestoreV2:131"
  attr {
    key: "T"
    value {
      type: DT_INT32
    }
  }
  attr {
    key: "_class"
    value {
      list {
        s: "loc:@global_step"
      }
    }
  }
  attr {
    key: "_has_manual_control_dependencies"
    value {
      b: true
    }
  }
  attr {
    key: "_output_shapes"
    value {
      list {
        shape {
        }
      }
    }
  }
  attr {
    key: "use_locking"
    value {
      b: true
    }
  }
  attr {
    key: "validate_shape"
    value {
      b: true
    }
  }
}
node {
  name: "save/Assign_132"
  op: "Assign"
  input: "y_embedding/y_emb"
  input: "save/RestoreV2:132"
  attr {
    key: "T"
    value {
      type: DT_FLOAT
    }
  }
  attr {
    key: "_class"
    value {
      list {
        s: "loc:@y_embedding/y_emb"
      }
    }
  }
  attr {
    key: "_has_manual_control_dependencies"
    value {
      b: true
    }
  }
  attr {
    key: "_output_shapes"
    value {
      list {
        shape {
          dim {
            size: 10
          }
          dim {
            size: 128
          }
        }
      }
    }
  }
  attr {
    key: "use_locking"
    value {
      b: true
    }
  }
  attr {
    key: "validate_shape"
    value {
      b: true
    }
  }
}
node {
  name: "save/Assign_133"
  op: "Assign"
  input: "y_embedding/y_emb/Adam"
  input: "save/RestoreV2:133"
  attr {
    key: "T"
    value {
      type: DT_FLOAT
    }
  }
  attr {
    key: "_class"
    value {
      list {
        s: "loc:@y_embedding/y_emb"
      }
    }
  }
  attr {
    key: "_has_manual_control_dependencies"
    value {
      b: true
    }
  }
  attr {
    key: "_output_shapes"
    value {
      list {
        shape {
          dim {
            size: 10
          }
          dim {
            size: 128
          }
        }
      }
    }
  }
  attr {
    key: "use_locking"
    value {
      b: true
    }
  }
  attr {
    key: "validate_shape"
    value {
      b: true
    }
  }
}
node {
  name: "save/Assign_134"
  op: "Assign"
  input: "y_embedding/y_emb/Adam_1"
  input: "save/RestoreV2:134"
  attr {
    key: "T"
    value {
      type: DT_FLOAT
    }
  }
  attr {
    key: "_class"
    value {
      list {
        s: "loc:@y_embedding/y_emb"
      }
    }
  }
  attr {
    key: "_has_manual_control_dependencies"
    value {
      b: true
    }
  }
  attr {
    key: "_output_shapes"
    value {
      list {
        shape {
          dim {
            size: 10
          }
          dim {
            size: 128
          }
        }
      }
    }
  }
  attr {
    key: "use_locking"
    value {
      b: true
    }
  }
  attr {
    key: "validate_shape"
    value {
      b: true
    }
  }
}
node {
  name: "save/restore_all"
  op: "NoOp"
  input: "^save/Assign"
  input: "^save/Assign_1"
  input: "^save/Assign_10"
  input: "^save/Assign_100"
  input: "^save/Assign_101"
  input: "^save/Assign_102"
  input: "^save/Assign_103"
  input: "^save/Assign_104"
  input: "^save/Assign_105"
  input: "^save/Assign_106"
  input: "^save/Assign_107"
  input: "^save/Assign_108"
  input: "^save/Assign_109"
  input: "^save/Assign_11"
  input: "^save/Assign_110"
  input: "^save/Assign_111"
  input: "^save/Assign_112"
  input: "^save/Assign_113"
  input: "^save/Assign_114"
  input: "^save/Assign_115"
  input: "^save/Assign_116"
  input: "^save/Assign_117"
  input: "^save/Assign_118"
  input: "^save/Assign_119"
  input: "^save/Assign_12"
  input: "^save/Assign_120"
  input: "^save/Assign_121"
  input: "^save/Assign_122"
  input: "^save/Assign_123"
  input: "^save/Assign_124"
  input: "^save/Assign_125"
  input: "^save/Assign_126"
  input: "^save/Assign_127"
  input: "^save/Assign_128"
  input: "^save/Assign_129"
  input: "^save/Assign_13"
  input: "^save/Assign_130"
  input: "^save/Assign_131"
  input: "^save/Assign_132"
  input: "^save/Assign_133"
  input: "^save/Assign_134"
  input: "^save/Assign_14"
  input: "^save/Assign_15"
  input: "^save/Assign_16"
  input: "^save/Assign_17"
  input: "^save/Assign_18"
  input: "^save/Assign_19"
  input: "^save/Assign_2"
  input: "^save/Assign_20"
  input: "^save/Assign_21"
  input: "^save/Assign_22"
  input: "^save/Assign_23"
  input: "^save/Assign_24"
  input: "^save/Assign_25"
  input: "^save/Assign_26"
  input: "^save/Assign_27"
  input: "^save/Assign_28"
  input: "^save/Assign_29"
  input: "^save/Assign_3"
  input: "^save/Assign_30"
  input: "^save/Assign_31"
  input: "^save/Assign_32"
  input: "^save/Assign_33"
  input: "^save/Assign_34"
  input: "^save/Assign_35"
  input: "^save/Assign_36"
  input: "^save/Assign_37"
  input: "^save/Assign_38"
  input: "^save/Assign_39"
  input: "^save/Assign_4"
  input: "^save/Assign_40"
  input: "^save/Assign_41"
  input: "^save/Assign_42"
  input: "^save/Assign_43"
  input: "^save/Assign_44"
  input: "^save/Assign_45"
  input: "^save/Assign_46"
  input: "^save/Assign_47"
  input: "^save/Assign_48"
  input: "^save/Assign_49"
  input: "^save/Assign_5"
  input: "^save/Assign_50"
  input: "^save/Assign_51"
  input: "^save/Assign_52"
  input: "^save/Assign_53"
  input: "^save/Assign_54"
  input: "^save/Assign_55"
  input: "^save/Assign_56"
  input: "^save/Assign_57"
  input: "^save/Assign_58"
  input: "^save/Assign_59"
  input: "^save/Assign_6"
  input: "^save/Assign_60"
  input: "^save/Assign_61"
  input: "^save/Assign_62"
  input: "^save/Assign_63"
  input: "^save/Assign_64"
  input: "^save/Assign_65"
  input: "^save/Assign_66"
  input: "^save/Assign_67"
  input: "^save/Assign_68"
  input: "^save/Assign_69"
  input: "^save/Assign_7"
  input: "^save/Assign_70"
  input: "^save/Assign_71"
  input: "^save/Assign_72"
  input: "^save/Assign_73"
  input: "^save/Assign_74"
  input: "^save/Assign_75"
  input: "^save/Assign_76"
  input: "^save/Assign_77"
  input: "^save/Assign_78"
  input: "^save/Assign_79"
  input: "^save/Assign_8"
  input: "^save/Assign_80"
  input: "^save/Assign_81"
  input: "^save/Assign_82"
  input: "^save/Assign_83"
  input: "^save/Assign_84"
  input: "^save/Assign_85"
  input: "^save/Assign_86"
  input: "^save/Assign_87"
  input: "^save/Assign_88"
  input: "^save/Assign_89"
  input: "^save/Assign_9"
  input: "^save/Assign_90"
  input: "^save/Assign_91"
  input: "^save/Assign_92"
  input: "^save/Assign_93"
  input: "^save/Assign_94"
  input: "^save/Assign_95"
  input: "^save/Assign_96"
  input: "^save/Assign_97"
  input: "^save/Assign_98"
  input: "^save/Assign_99"
}
node {
  name: "Merge/MergeSummary"
  op: "MergeSummary"
  input: "InputSpectralFrame/input_producer/fraction_of_32_full"
  input: "InputSpectralFrame/shuffle_batch/fraction_over_1024_of_1024_full"
  input: "KL-div"
  input: "logPx"
  input: "xh"
  input: "x"
  attr {
    key: "N"
    value {
      i: 6
    }
  }
  attr {
    key: "_output_shapes"
    value {
      list {
        shape {
        }
      }
    }
  }
}
versions {
  producer: 1286
}
